{"format": "layers-model", "generatedBy": "keras v2.8.0", "convertedBy": "TensorFlow.js Converter v3.15.0", "modelTopology": {"keras_version": "2.8.0", "backend": "tensorflow", "model_config": {"class_name": "Sequential", "config": {"name": "sequential_1", "layers": [{"class_name": "InputLayer", "config": {"batch_input_shape": [null, 224, 224, 3], "dtype": "float32", "sparse": false, "ragged": false, "name": "keras_layer_input"}}, {"class_name": "KerasLayer", "config": {"name": "keras_layer", "trainable": false, "batch_input_shape": [null, 224, 224, 3], "dtype": "float32", "handle": "https://tfhub.dev/google/tf2-preview/mobilenet_v2/feature_vector/4"}}, {"class_name": "Dense", "config": {"name": "dense_1", "trainable": true, "dtype": "float32", "units": 12, "activation": "softmax", "use_bias": true, "kernel_initializer": {"class_name": "GlorotUniform", "config": {"seed": null}}, "bias_initializer": {"class_name": "Zeros", "config": {}}, "kernel_regularizer": null, "bias_regularizer": null, "activity_regularizer": null, "kernel_constraint": null, "bias_constraint": null}}]}}, "training_config": {"loss": {"class_name": "SparseCategoricalCrossentropy", "config": {"reduction": "auto", "name": "sparse_categorical_crossentropy", "from_logits": false}}, "metrics": [[{"class_name": "MeanMetricWrapper", "config": {"name": "accuracy", "dtype": "float32", "fn": "sparse_categorical_accuracy"}}]], "weighted_metrics": null, "loss_weights": null, "optimizer_config": {"class_name": "Adam", "config": {"name": "Adam", "learning_rate": 0.0010000000474974513, "decay": 0.0, "beta_1": 0.8999999761581421, "beta_2": 0.9990000128746033, "epsilon": 1e-07, "amsgrad": false}}}}, "weightsManifest": [{"paths": ["group1-shard1of3.bin", "group1-shard2of3.bin", "group1-shard3of3.bin"], "weights": [{"name": "dense_1/kernel", "shape": [1280, 12], "dtype": "float32"}, {"name": "dense_1/bias", "shape": [12], "dtype": "float32"}, {"name": "MobilenetV2/expanded_conv_15/depthwise/depthwise_weights", "shape": [3, 3, 960, 1], "dtype": "float32"}, {"name": "MobilenetV2/expanded_conv_4/depthwise/depthwise_weights", "shape": [3, 3, 192, 1], "dtype": "float32"}, {"name": "MobilenetV2/Conv/weights", "shape": [3, 3, 3, 32], "dtype": "float32"}, {"name": "MobilenetV2/expanded_conv_12/project/BatchNorm/gamma", "shape": [96], "dtype": "float32"}, {"name": "MobilenetV2/expanded_conv_12/expand/weights", "shape": [1, 1, 96, 576], "dtype": "float32"}, {"name": "MobilenetV2/expanded_conv_13/depthwise/BatchNorm/gamma", "shape": [576], "dtype": "float32"}, {"name": "MobilenetV2/expanded_conv_11/expand/BatchNorm/beta", "shape": [576], "dtype": "float32"}, {"name": "MobilenetV2/expanded_conv_5/project/weights", "shape": [1, 1, 192, 32], "dtype": "float32"}, {"name": "MobilenetV2/expanded_conv_9/project/BatchNorm/gamma", "shape": [64], "dtype": "float32"}, {"name": "MobilenetV2/expanded_conv_13/depthwise/depthwise_weights", "shape": [3, 3, 576, 1], "dtype": "float32"}, {"name": "MobilenetV2/expanded_conv_10/project/BatchNorm/beta", "shape": [96], "dtype": "float32"}, {"name": "MobilenetV2/expanded_conv_4/project/weights", "shape": [1, 1, 192, 32], "dtype": "float32"}, {"name": "MobilenetV2/expanded_conv_14/project/BatchNorm/beta", "shape": [160], "dtype": "float32"}, {"name": "MobilenetV2/expanded_conv_15/project/weights", "shape": [1, 1, 960, 160], "dtype": "float32"}, {"name": "MobilenetV2/expanded_conv_1/depthwise/depthwise_weights", "shape": [3, 3, 96, 1], "dtype": "float32"}, {"name": "MobilenetV2/expanded_conv_16/project/BatchNorm/gamma", "shape": [320], "dtype": "float32"}, {"name": "MobilenetV2/expanded_conv_6/project/BatchNorm/gamma", "shape": [64], "dtype": "float32"}, {"name": "MobilenetV2/expanded_conv_9/project/BatchNorm/beta", "shape": [64], "dtype": "float32"}, {"name": "MobilenetV2/expanded_conv_6/depthwise/BatchNorm/beta", "shape": [192], "dtype": "float32"}, {"name": "MobilenetV2/expanded_conv_3/depthwise/BatchNorm/gamma", "shape": [144], "dtype": "float32"}, {"name": "MobilenetV2/expanded_conv_12/depthwise/depthwise_weights", "shape": [3, 3, 576, 1], "dtype": "float32"}, {"name": "MobilenetV2/expanded_conv_10/depthwise/BatchNorm/beta", "shape": [384], "dtype": "float32"}, {"name": "MobilenetV2/expanded_conv_2/expand/BatchNorm/gamma", "shape": [144], "dtype": "float32"}, {"name": "MobilenetV2/expanded_conv_8/expand/BatchNorm/beta", "shape": [384], "dtype": "float32"}, {"name": "MobilenetV2/expanded_conv_9/project/weights", "shape": [1, 1, 384, 64], "dtype": "float32"}, {"name": "MobilenetV2/expanded_conv_8/project/BatchNorm/beta", "shape": [64], "dtype": "float32"}, {"name": "MobilenetV2/expanded_conv_11/depthwise/BatchNorm/beta", "shape": [576], "dtype": "float32"}, {"name": "MobilenetV2/expanded_conv_6/expand/BatchNorm/gamma", "shape": [192], "dtype": "float32"}, {"name": "MobilenetV2/expanded_conv_14/expand/BatchNorm/gamma", "shape": [960], "dtype": "float32"}, {"name": "MobilenetV2/expanded_conv_7/expand/weights", "shape": [1, 1, 64, 384], "dtype": "float32"}, {"name": "MobilenetV2/expanded_conv_10/depthwise/depthwise_weights", "shape": [3, 3, 384, 1], "dtype": "float32"}, {"name": "MobilenetV2/Conv_1/BatchNorm/gamma", "shape": [1280], "dtype": "float32"}, {"name": "MobilenetV2/expanded_conv_4/depthwise/BatchNorm/gamma", "shape": [192], "dtype": "float32"}, {"name": "MobilenetV2/expanded_conv_5/expand/BatchNorm/gamma", "shape": [192], "dtype": "float32"}, {"name": "MobilenetV2/expanded_conv_2/depthwise/depthwise_weights", "shape": [3, 3, 144, 1], "dtype": "float32"}, {"name": "MobilenetV2/expanded_conv_10/expand/BatchNorm/beta", "shape": [384], "dtype": "float32"}, {"name": "MobilenetV2/expanded_conv_11/expand/weights", "shape": [1, 1, 96, 576], "dtype": "float32"}, {"name": "MobilenetV2/expanded_conv_14/depthwise/BatchNorm/beta", "shape": [960], "dtype": "float32"}, {"name": "MobilenetV2/expanded_conv_11/project/BatchNorm/beta", "shape": [96], "dtype": "float32"}, {"name": "MobilenetV2/expanded_conv_11/depthwise/BatchNorm/gamma", "shape": [576], "dtype": "float32"}, {"name": "MobilenetV2/expanded_conv_9/depthwise/depthwise_weights", "shape": [3, 3, 384, 1], "dtype": "float32"}, {"name": "MobilenetV2/expanded_conv_7/expand/BatchNorm/beta", "shape": [384], "dtype": "float32"}, {"name": "MobilenetV2/expanded_conv_10/project/BatchNorm/gamma", "shape": [96], "dtype": "float32"}, {"name": "MobilenetV2/expanded_conv_15/expand/BatchNorm/gamma", "shape": [960], "dtype": "float32"}, {"name": "MobilenetV2/expanded_conv_11/depthwise/depthwise_weights", "shape": [3, 3, 576, 1], "dtype": "float32"}, {"name": "MobilenetV2/expanded_conv_13/project/BatchNorm/gamma", "shape": [160], "dtype": "float32"}, {"name": "MobilenetV2/expanded_conv_16/depthwise/BatchNorm/beta", "shape": [960], "dtype": "float32"}, {"name": "MobilenetV2/expanded_conv_8/project/weights", "shape": [1, 1, 384, 64], "dtype": "float32"}, {"name": "MobilenetV2/expanded_conv_7/depthwise/BatchNorm/beta", "shape": [384], "dtype": "float32"}, {"name": "MobilenetV2/expanded_conv_16/project/BatchNorm/beta", "shape": [320], "dtype": "float32"}, {"name": "MobilenetV2/expanded_conv_2/depthwise/BatchNorm/gamma", "shape": [144], "dtype": "float32"}, {"name": "MobilenetV2/expanded_conv_10/expand/weights", "shape": [1, 1, 64, 384], "dtype": "float32"}, {"name": "MobilenetV2/expanded_conv_16/expand/weights", "shape": [1, 1, 160, 960], "dtype": "float32"}, {"name": "MobilenetV2/expanded_conv/project/weights", "shape": [1, 1, 32, 16], "dtype": "float32"}, {"name": "MobilenetV2/expanded_conv_4/expand/weights", "shape": [1, 1, 32, 192], "dtype": "float32"}, {"name": "MobilenetV2/expanded_conv_15/project/BatchNorm/beta", "shape": [160], "dtype": "float32"}, {"name": "MobilenetV2/expanded_conv_13/depthwise/BatchNorm/beta", "shape": [576], "dtype": "float32"}, {"name": "MobilenetV2/expanded_conv_6/depthwise/BatchNorm/gamma", "shape": [192], "dtype": "float32"}, {"name": "MobilenetV2/expanded_conv_13/project/weights", "shape": [1, 1, 576, 160], "dtype": "float32"}, {"name": "MobilenetV2/expanded_conv_3/project/BatchNorm/beta", "shape": [32], "dtype": "float32"}, {"name": "MobilenetV2/expanded_conv_1/project/BatchNorm/gamma", "shape": [24], "dtype": "float32"}, {"name": "MobilenetV2/expanded_conv_1/depthwise/BatchNorm/gamma", "shape": [96], "dtype": "float32"}, {"name": "MobilenetV2/expanded_conv_13/expand/BatchNorm/gamma", "shape": [576], "dtype": "float32"}, {"name": "MobilenetV2/expanded_conv_4/project/BatchNorm/beta", "shape": [32], "dtype": "float32"}, {"name": "MobilenetV2/expanded_conv_15/project/BatchNorm/gamma", "shape": [160], "dtype": "float32"}, {"name": "MobilenetV2/expanded_conv_2/expand/weights", "shape": [1, 1, 24, 144], "dtype": "float32"}, {"name": "MobilenetV2/expanded_conv_2/project/BatchNorm/gamma", "shape": [24], "dtype": "float32"}, {"name": "MobilenetV2/expanded_conv_5/expand/BatchNorm/beta", "shape": [192], "dtype": "float32"}, {"name": "MobilenetV2/expanded_conv_9/depthwise/BatchNorm/gamma", "shape": [384], "dtype": "float32"}, {"name": "MobilenetV2/expanded_conv_2/depthwise/BatchNorm/beta", "shape": [144], "dtype": "float32"}, {"name": "MobilenetV2/expanded_conv_14/depthwise/depthwise_weights", "shape": [3, 3, 960, 1], "dtype": "float32"}, {"name": "MobilenetV2/expanded_conv_13/expand/weights", "shape": [1, 1, 96, 576], "dtype": "float32"}, {"name": "MobilenetV2/expanded_conv_16/expand/BatchNorm/beta", "shape": [960], "dtype": "float32"}, {"name": "MobilenetV2/expanded_conv_9/expand/BatchNorm/beta", "shape": [384], "dtype": "float32"}, {"name": "MobilenetV2/expanded_conv_7/project/BatchNorm/gamma", "shape": [64], "dtype": "float32"}, {"name": "MobilenetV2/expanded_conv/depthwise/depthwise_weights", "shape": [3, 3, 32, 1], "dtype": "float32"}, {"name": "MobilenetV2/expanded_conv_1/project/weights", "shape": [1, 1, 96, 24], "dtype": "float32"}, {"name": "MobilenetV2/expanded_conv_3/project/weights", "shape": [1, 1, 144, 32], "dtype": "float32"}, {"name": "MobilenetV2/expanded_conv_11/project/weights", "shape": [1, 1, 576, 96], "dtype": "float32"}, {"name": "MobilenetV2/expanded_conv_2/expand/BatchNorm/beta", "shape": [144], "dtype": "float32"}, {"name": "MobilenetV2/expanded_conv_1/project/BatchNorm/beta", "shape": [24], "dtype": "float32"}, {"name": "MobilenetV2/expanded_conv/project/BatchNorm/gamma", "shape": [16], "dtype": "float32"}, {"name": "MobilenetV2/expanded_conv_16/depthwise/depthwise_weights", "shape": [3, 3, 960, 1], "dtype": "float32"}, {"name": "MobilenetV2/expanded_conv_5/project/BatchNorm/beta", "shape": [32], "dtype": "float32"}, {"name": "MobilenetV2/expanded_conv_12/project/weights", "shape": [1, 1, 576, 96], "dtype": "float32"}, {"name": "MobilenetV2/expanded_conv_15/depthwise/BatchNorm/gamma", "shape": [960], "dtype": "float32"}, {"name": "MobilenetV2/expanded_conv_14/project/BatchNorm/gamma", "shape": [160], "dtype": "float32"}, {"name": "MobilenetV2/expanded_conv_5/depthwise/depthwise_weights", "shape": [3, 3, 192, 1], "dtype": "float32"}, {"name": "MobilenetV2/expanded_conv_7/expand/BatchNorm/gamma", "shape": [384], "dtype": "float32"}, {"name": "MobilenetV2/expanded_conv_15/expand/weights", "shape": [1, 1, 160, 960], "dtype": "float32"}, {"name": "MobilenetV2/expanded_conv_6/project/weights", "shape": [1, 1, 192, 64], "dtype": "float32"}, {"name": "MobilenetV2/expanded_conv_11/expand/BatchNorm/gamma", "shape": [576], "dtype": "float32"}, {"name": "MobilenetV2/expanded_conv_10/depthwise/BatchNorm/gamma", "shape": [384], "dtype": "float32"}, {"name": "MobilenetV2/expanded_conv_1/expand/weights", "shape": [1, 1, 16, 96], "dtype": "float32"}, {"name": "MobilenetV2/expanded_conv_5/depthwise/BatchNorm/beta", "shape": [192], "dtype": "float32"}, {"name": "MobilenetV2/expanded_conv_9/expand/weights", "shape": [1, 1, 64, 384], "dtype": "float32"}, {"name": "MobilenetV2/expanded_conv/depthwise/BatchNorm/beta", "shape": [32], "dtype": "float32"}, {"name": "MobilenetV2/Conv/BatchNorm/gamma", "shape": [32], "dtype": "float32"}, {"name": "MobilenetV2/expanded_conv_16/depthwise/BatchNorm/gamma", "shape": [960], "dtype": "float32"}, {"name": "MobilenetV2/expanded_conv_4/depthwise/BatchNorm/beta", "shape": [192], "dtype": "float32"}, {"name": "MobilenetV2/expanded_conv_3/depthwise/depthwise_weights", "shape": [3, 3, 144, 1], "dtype": "float32"}, {"name": "MobilenetV2/expanded_conv_9/expand/BatchNorm/gamma", "shape": [384], "dtype": "float32"}, {"name": "MobilenetV2/expanded_conv_15/expand/BatchNorm/beta", "shape": [960], "dtype": "float32"}, {"name": "MobilenetV2/expanded_conv_6/expand/weights", "shape": [1, 1, 32, 192], "dtype": "float32"}, {"name": "MobilenetV2/expanded_conv_14/expand/weights", "shape": [1, 1, 160, 960], "dtype": "float32"}, {"name": "MobilenetV2/expanded_conv_1/depthwise/BatchNorm/beta", "shape": [96], "dtype": "float32"}, {"name": "MobilenetV2/expanded_conv_5/expand/weights", "shape": [1, 1, 32, 192], "dtype": "float32"}, {"name": "MobilenetV2/expanded_conv_14/expand/BatchNorm/beta", "shape": [960], "dtype": "float32"}, {"name": "MobilenetV2/expanded_conv_2/project/weights", "shape": [1, 1, 144, 24], "dtype": "float32"}, {"name": "MobilenetV2/expanded_conv_12/expand/BatchNorm/gamma", "shape": [576], "dtype": "float32"}, {"name": "MobilenetV2/expanded_conv_16/expand/BatchNorm/gamma", "shape": [960], "dtype": "float32"}, {"name": "MobilenetV2/expanded_conv_12/depthwise/BatchNorm/gamma", "shape": [576], "dtype": "float32"}, {"name": "MobilenetV2/expanded_conv_14/project/weights", "shape": [1, 1, 960, 160], "dtype": "float32"}, {"name": "MobilenetV2/expanded_conv_3/project/BatchNorm/gamma", "shape": [32], "dtype": "float32"}, {"name": "MobilenetV2/Conv_1/weights", "shape": [1, 1, 320, 1280], "dtype": "float32"}, {"name": "MobilenetV2/expanded_conv_7/project/BatchNorm/beta", "shape": [64], "dtype": "float32"}, {"name": "MobilenetV2/expanded_conv_13/project/BatchNorm/beta", "shape": [160], "dtype": "float32"}, {"name": "MobilenetV2/expanded_conv_6/project/BatchNorm/beta", "shape": [64], "dtype": "float32"}, {"name": "MobilenetV2/expanded_conv_12/project/BatchNorm/beta", "shape": [96], "dtype": "float32"}, {"name": "MobilenetV2/expanded_conv_1/expand/BatchNorm/beta", "shape": [96], "dtype": "float32"}, {"name": "MobilenetV2/expanded_conv_4/project/BatchNorm/gamma", "shape": [32], "dtype": "float32"}, {"name": "MobilenetV2/expanded_conv/project/BatchNorm/beta", "shape": [16], "dtype": "float32"}, {"name": "MobilenetV2/expanded_conv_1/expand/BatchNorm/gamma", "shape": [96], "dtype": "float32"}, {"name": "MobilenetV2/expanded_conv_16/project/weights", "shape": [1, 1, 960, 320], "dtype": "float32"}, {"name": "MobilenetV2/Conv_1/BatchNorm/beta", "shape": [1280], "dtype": "float32"}, {"name": "MobilenetV2/expanded_conv/depthwise/BatchNorm/gamma", "shape": [32], "dtype": "float32"}, {"name": "MobilenetV2/expanded_conv_4/expand/BatchNorm/beta", "shape": [192], "dtype": "float32"}, {"name": "MobilenetV2/expanded_conv_5/project/BatchNorm/gamma", "shape": [32], "dtype": "float32"}, {"name": "MobilenetV2/expanded_conv_3/expand/weights", "shape": [1, 1, 24, 144], "dtype": "float32"}, {"name": "MobilenetV2/expanded_conv_7/depthwise/depthwise_weights", "shape": [3, 3, 384, 1], "dtype": "float32"}, {"name": "MobilenetV2/expanded_conv_12/depthwise/BatchNorm/beta", "shape": [576], "dtype": "float32"}, {"name": "MobilenetV2/expanded_conv_2/project/BatchNorm/beta", "shape": [24], "dtype": "float32"}, {"name": "MobilenetV2/expanded_conv_5/depthwise/BatchNorm/gamma", "shape": [192], "dtype": "float32"}, {"name": "MobilenetV2/expanded_conv_8/expand/BatchNorm/gamma", "shape": [384], "dtype": "float32"}, {"name": "MobilenetV2/expanded_conv_3/depthwise/BatchNorm/beta", "shape": [144], "dtype": "float32"}, {"name": "MobilenetV2/expanded_conv_8/depthwise/BatchNorm/beta", "shape": [384], "dtype": "float32"}, {"name": "MobilenetV2/expanded_conv_7/project/weights", "shape": [1, 1, 384, 64], "dtype": "float32"}, {"name": "MobilenetV2/expanded_conv_8/depthwise/depthwise_weights", "shape": [3, 3, 384, 1], "dtype": "float32"}, {"name": "MobilenetV2/expanded_conv_15/depthwise/BatchNorm/beta", "shape": [960], "dtype": "float32"}, {"name": "MobilenetV2/expanded_conv_11/project/BatchNorm/gamma", "shape": [96], "dtype": "float32"}, {"name": "MobilenetV2/expanded_conv_8/expand/weights", "shape": [1, 1, 64, 384], "dtype": "float32"}, {"name": "MobilenetV2/expanded_conv_9/depthwise/BatchNorm/beta", "shape": [384], "dtype": "float32"}, {"name": "MobilenetV2/Conv/BatchNorm/beta", "shape": [32], "dtype": "float32"}, {"name": "MobilenetV2/expanded_conv_3/expand/BatchNorm/beta", "shape": [144], "dtype": "float32"}, {"name": "MobilenetV2/expanded_conv_6/depthwise/depthwise_weights", "shape": [3, 3, 192, 1], "dtype": "float32"}, {"name": "MobilenetV2/expanded_conv_12/expand/BatchNorm/beta", "shape": [576], "dtype": "float32"}, {"name": "MobilenetV2/expanded_conv_3/expand/BatchNorm/gamma", "shape": [144], "dtype": "float32"}, {"name": "MobilenetV2/expanded_conv_10/project/weights", "shape": [1, 1, 384, 96], "dtype": "float32"}, {"name": "MobilenetV2/expanded_conv_6/expand/BatchNorm/beta", "shape": [192], "dtype": "float32"}, {"name": "MobilenetV2/expanded_conv_14/depthwise/BatchNorm/gamma", "shape": [960], "dtype": "float32"}, {"name": "MobilenetV2/expanded_conv_8/depthwise/BatchNorm/gamma", "shape": [384], "dtype": "float32"}, {"name": "MobilenetV2/expanded_conv_7/depthwise/BatchNorm/gamma", "shape": [384], "dtype": "float32"}, {"name": "MobilenetV2/expanded_conv_8/project/BatchNorm/gamma", "shape": [64], "dtype": "float32"}, {"name": "MobilenetV2/expanded_conv_4/expand/BatchNorm/gamma", "shape": [192], "dtype": "float32"}, {"name": "MobilenetV2/expanded_conv_13/expand/BatchNorm/beta", "shape": [576], "dtype": "float32"}, {"name": "MobilenetV2/expanded_conv_10/expand/BatchNorm/gamma", "shape": [384], "dtype": "float32"}, {"name": "MobilenetV2/expanded_conv/project/BatchNorm/moving_mean", "shape": [16], "dtype": "float32"}, {"name": "MobilenetV2/expanded_conv_9/depthwise/BatchNorm/moving_mean", "shape": [384], "dtype": "float32"}, {"name": "MobilenetV2/expanded_conv_11/project/BatchNorm/moving_mean", "shape": [96], "dtype": "float32"}, {"name": "MobilenetV2/expanded_conv_14/expand/BatchNorm/moving_variance", "shape": [960], "dtype": "float32"}, {"name": "MobilenetV2/expanded_conv_16/expand/BatchNorm/moving_mean", "shape": [960], "dtype": "float32"}, {"name": "MobilenetV2/expanded_conv_14/expand/BatchNorm/moving_mean", "shape": [960], "dtype": "float32"}, {"name": "MobilenetV2/expanded_conv_15/expand/BatchNorm/moving_mean", "shape": [960], "dtype": "float32"}, {"name": "MobilenetV2/expanded_conv_15/project/BatchNorm/moving_mean", "shape": [160], "dtype": "float32"}, {"name": "MobilenetV2/Conv_1/BatchNorm/moving_mean", "shape": [1280], "dtype": "float32"}, {"name": "MobilenetV2/expanded_conv_14/project/BatchNorm/moving_variance", "shape": [160], "dtype": "float32"}, {"name": "MobilenetV2/expanded_conv_8/expand/BatchNorm/moving_variance", "shape": [384], "dtype": "float32"}, {"name": "MobilenetV2/expanded_conv_2/project/BatchNorm/moving_mean", "shape": [24], "dtype": "float32"}, {"name": "MobilenetV2/expanded_conv_14/project/BatchNorm/moving_mean", "shape": [160], "dtype": "float32"}, {"name": "MobilenetV2/expanded_conv_6/project/BatchNorm/moving_variance", "shape": [64], "dtype": "float32"}, {"name": "MobilenetV2/expanded_conv/depthwise/BatchNorm/moving_variance", "shape": [32], "dtype": "float32"}, {"name": "MobilenetV2/expanded_conv_15/project/BatchNorm/moving_variance", "shape": [160], "dtype": "float32"}, {"name": "MobilenetV2/expanded_conv_9/project/BatchNorm/moving_variance", "shape": [64], "dtype": "float32"}, {"name": "MobilenetV2/expanded_conv_2/project/BatchNorm/moving_variance", "shape": [24], "dtype": "float32"}, {"name": "MobilenetV2/expanded_conv_10/depthwise/BatchNorm/moving_mean", "shape": [384], "dtype": "float32"}, {"name": "MobilenetV2/expanded_conv_2/expand/BatchNorm/moving_variance", "shape": [144], "dtype": "float32"}, {"name": "MobilenetV2/Conv/BatchNorm/moving_variance", "shape": [32], "dtype": "float32"}, {"name": "MobilenetV2/expanded_conv_7/project/BatchNorm/moving_variance", "shape": [64], "dtype": "float32"}, {"name": "MobilenetV2/expanded_conv_4/depthwise/BatchNorm/moving_mean", "shape": [192], "dtype": "float32"}, {"name": "MobilenetV2/expanded_conv_6/expand/BatchNorm/moving_variance", "shape": [192], "dtype": "float32"}, {"name": "MobilenetV2/expanded_conv_16/project/BatchNorm/moving_variance", "shape": [320], "dtype": "float32"}, {"name": "MobilenetV2/expanded_conv_1/expand/BatchNorm/moving_variance", "shape": [96], "dtype": "float32"}, {"name": "MobilenetV2/expanded_conv_13/expand/BatchNorm/moving_mean", "shape": [576], "dtype": "float32"}, {"name": "MobilenetV2/expanded_conv_13/project/BatchNorm/moving_variance", "shape": [160], "dtype": "float32"}, {"name": "MobilenetV2/expanded_conv_12/depthwise/BatchNorm/moving_variance", "shape": [576], "dtype": "float32"}, {"name": "MobilenetV2/expanded_conv_5/expand/BatchNorm/moving_variance", "shape": [192], "dtype": "float32"}, {"name": "MobilenetV2/expanded_conv_11/expand/BatchNorm/moving_mean", "shape": [576], "dtype": "float32"}, {"name": "MobilenetV2/expanded_conv_7/depthwise/BatchNorm/moving_variance", "shape": [384], "dtype": "float32"}, {"name": "MobilenetV2/expanded_conv_14/depthwise/BatchNorm/moving_mean", "shape": [960], "dtype": "float32"}, {"name": "MobilenetV2/expanded_conv_15/expand/BatchNorm/moving_variance", "shape": [960], "dtype": "float32"}, {"name": "MobilenetV2/expanded_conv_13/project/BatchNorm/moving_mean", "shape": [160], "dtype": "float32"}, {"name": "MobilenetV2/expanded_conv_4/project/BatchNorm/moving_mean", "shape": [32], "dtype": "float32"}, {"name": "MobilenetV2/expanded_conv_4/expand/BatchNorm/moving_mean", "shape": [192], "dtype": "float32"}, {"name": "MobilenetV2/expanded_conv_1/depthwise/BatchNorm/moving_mean", "shape": [96], "dtype": "float32"}, {"name": "MobilenetV2/expanded_conv_11/depthwise/BatchNorm/moving_mean", "shape": [576], "dtype": "float32"}, {"name": "MobilenetV2/expanded_conv_16/project/BatchNorm/moving_mean", "shape": [320], "dtype": "float32"}, {"name": "MobilenetV2/expanded_conv_5/depthwise/BatchNorm/moving_mean", "shape": [192], "dtype": "float32"}, {"name": "MobilenetV2/expanded_conv_10/expand/BatchNorm/moving_mean", "shape": [384], "dtype": "float32"}, {"name": "MobilenetV2/Conv/BatchNorm/moving_mean", "shape": [32], "dtype": "float32"}, {"name": "MobilenetV2/expanded_conv_7/project/BatchNorm/moving_mean", "shape": [64], "dtype": "float32"}, {"name": "MobilenetV2/expanded_conv_5/depthwise/BatchNorm/moving_variance", "shape": [192], "dtype": "float32"}, {"name": "MobilenetV2/expanded_conv_11/depthwise/BatchNorm/moving_variance", "shape": [576], "dtype": "float32"}, {"name": "MobilenetV2/expanded_conv_10/depthwise/BatchNorm/moving_variance", "shape": [384], "dtype": "float32"}, {"name": "MobilenetV2/expanded_conv_3/expand/BatchNorm/moving_variance", "shape": [144], "dtype": "float32"}, {"name": "MobilenetV2/expanded_conv_3/expand/BatchNorm/moving_mean", "shape": [144], "dtype": "float32"}, {"name": "MobilenetV2/expanded_conv_10/expand/BatchNorm/moving_variance", "shape": [384], "dtype": "float32"}, {"name": "MobilenetV2/expanded_conv_3/project/BatchNorm/moving_variance", "shape": [32], "dtype": "float32"}, {"name": "MobilenetV2/expanded_conv_5/project/BatchNorm/moving_variance", "shape": [32], "dtype": "float32"}, {"name": "MobilenetV2/expanded_conv_7/expand/BatchNorm/moving_variance", "shape": [384], "dtype": "float32"}, {"name": "MobilenetV2/expanded_conv_8/project/BatchNorm/moving_mean", "shape": [64], "dtype": "float32"}, {"name": "MobilenetV2/expanded_conv_15/depthwise/BatchNorm/moving_mean", "shape": [960], "dtype": "float32"}, {"name": "MobilenetV2/expanded_conv_7/expand/BatchNorm/moving_mean", "shape": [384], "dtype": "float32"}, {"name": "MobilenetV2/expanded_conv_12/depthwise/BatchNorm/moving_mean", "shape": [576], "dtype": "float32"}, {"name": "MobilenetV2/expanded_conv_15/depthwise/BatchNorm/moving_variance", "shape": [960], "dtype": "float32"}, {"name": "MobilenetV2/expanded_conv_2/depthwise/BatchNorm/moving_variance", "shape": [144], "dtype": "float32"}, {"name": "MobilenetV2/expanded_conv/project/BatchNorm/moving_variance", "shape": [16], "dtype": "float32"}, {"name": "MobilenetV2/expanded_conv_9/expand/BatchNorm/moving_mean", "shape": [384], "dtype": "float32"}, {"name": "MobilenetV2/expanded_conv_12/expand/BatchNorm/moving_mean", "shape": [576], "dtype": "float32"}, {"name": "MobilenetV2/expanded_conv_8/expand/BatchNorm/moving_mean", "shape": [384], "dtype": "float32"}, {"name": "MobilenetV2/expanded_conv_13/depthwise/BatchNorm/moving_mean", "shape": [576], "dtype": "float32"}, {"name": "MobilenetV2/expanded_conv_7/depthwise/BatchNorm/moving_mean", "shape": [384], "dtype": "float32"}, {"name": "MobilenetV2/expanded_conv_16/depthwise/BatchNorm/moving_mean", "shape": [960], "dtype": "float32"}, {"name": "MobilenetV2/expanded_conv_3/depthwise/BatchNorm/moving_variance", "shape": [144], "dtype": "float32"}, {"name": "MobilenetV2/expanded_conv_2/expand/BatchNorm/moving_mean", "shape": [144], "dtype": "float32"}, {"name": "MobilenetV2/expanded_conv_12/expand/BatchNorm/moving_variance", "shape": [576], "dtype": "float32"}, {"name": "MobilenetV2/expanded_conv_9/depthwise/BatchNorm/moving_variance", "shape": [384], "dtype": "float32"}, {"name": "MobilenetV2/expanded_conv_4/depthwise/BatchNorm/moving_variance", "shape": [192], "dtype": "float32"}, {"name": "MobilenetV2/expanded_conv/depthwise/BatchNorm/moving_mean", "shape": [32], "dtype": "float32"}, {"name": "MobilenetV2/Conv_1/BatchNorm/moving_variance", "shape": [1280], "dtype": "float32"}, {"name": "MobilenetV2/expanded_conv_8/depthwise/BatchNorm/moving_mean", "shape": [384], "dtype": "float32"}, {"name": "MobilenetV2/expanded_conv_1/project/BatchNorm/moving_variance", "shape": [24], "dtype": "float32"}, {"name": "MobilenetV2/expanded_conv_16/expand/BatchNorm/moving_variance", "shape": [960], "dtype": "float32"}, {"name": "MobilenetV2/expanded_conv_10/project/BatchNorm/moving_variance", "shape": [96], "dtype": "float32"}, {"name": "MobilenetV2/expanded_conv_2/depthwise/BatchNorm/moving_mean", "shape": [144], "dtype": "float32"}, {"name": "MobilenetV2/expanded_conv_5/expand/BatchNorm/moving_mean", "shape": [192], "dtype": "float32"}, {"name": "MobilenetV2/expanded_conv_12/project/BatchNorm/moving_variance", "shape": [96], "dtype": "float32"}, {"name": "MobilenetV2/expanded_conv_10/project/BatchNorm/moving_mean", "shape": [96], "dtype": "float32"}, {"name": "MobilenetV2/expanded_conv_16/depthwise/BatchNorm/moving_variance", "shape": [960], "dtype": "float32"}, {"name": "MobilenetV2/expanded_conv_5/project/BatchNorm/moving_mean", "shape": [32], "dtype": "float32"}, {"name": "MobilenetV2/expanded_conv_3/project/BatchNorm/moving_mean", "shape": [32], "dtype": "float32"}, {"name": "MobilenetV2/expanded_conv_9/project/BatchNorm/moving_mean", "shape": [64], "dtype": "float32"}, {"name": "MobilenetV2/expanded_conv_1/expand/BatchNorm/moving_mean", "shape": [96], "dtype": "float32"}, {"name": "MobilenetV2/expanded_conv_12/project/BatchNorm/moving_mean", "shape": [96], "dtype": "float32"}, {"name": "MobilenetV2/expanded_conv_8/depthwise/BatchNorm/moving_variance", "shape": [384], "dtype": "float32"}, {"name": "MobilenetV2/expanded_conv_6/project/BatchNorm/moving_mean", "shape": [64], "dtype": "float32"}, {"name": "MobilenetV2/expanded_conv_14/depthwise/BatchNorm/moving_variance", "shape": [960], "dtype": "float32"}, {"name": "MobilenetV2/expanded_conv_6/depthwise/BatchNorm/moving_mean", "shape": [192], "dtype": "float32"}, {"name": "MobilenetV2/expanded_conv_3/depthwise/BatchNorm/moving_mean", "shape": [144], "dtype": "float32"}, {"name": "MobilenetV2/expanded_conv_4/expand/BatchNorm/moving_variance", "shape": [192], "dtype": "float32"}, {"name": "MobilenetV2/expanded_conv_8/project/BatchNorm/moving_variance", "shape": [64], "dtype": "float32"}, {"name": "MobilenetV2/expanded_conv_13/depthwise/BatchNorm/moving_variance", "shape": [576], "dtype": "float32"}, {"name": "MobilenetV2/expanded_conv_4/project/BatchNorm/moving_variance", "shape": [32], "dtype": "float32"}, {"name": "MobilenetV2/expanded_conv_6/depthwise/BatchNorm/moving_variance", "shape": [192], "dtype": "float32"}, {"name": "MobilenetV2/expanded_conv_1/depthwise/BatchNorm/moving_variance", "shape": [96], "dtype": "float32"}, {"name": "MobilenetV2/expanded_conv_1/project/BatchNorm/moving_mean", "shape": [24], "dtype": "float32"}, {"name": "MobilenetV2/expanded_conv_11/project/BatchNorm/moving_variance", "shape": [96], "dtype": "float32"}, {"name": "MobilenetV2/expanded_conv_11/expand/BatchNorm/moving_variance", "shape": [576], "dtype": "float32"}, {"name": "MobilenetV2/expanded_conv_6/expand/BatchNorm/moving_mean", "shape": [192], "dtype": "float32"}, {"name": "MobilenetV2/expanded_conv_13/expand/BatchNorm/moving_variance", "shape": [576], "dtype": "float32"}, {"name": "MobilenetV2/expanded_conv_9/expand/BatchNorm/moving_variance", "shape": [384], "dtype": "float32"}]}]}