{"format": "graph-model", "generatedBy": "2.8.0", "convertedBy": "TensorFlow.js Converter v3.15.0", "signature": {"inputs": {"input_2": {"name": "input_2:0", "dtype": "DT_FLOAT", "tensorShape": {"dim": [{"size": "-1"}, {"size": "224"}, {"size": "224"}, {"size": "3"}]}}}, "outputs": {"final_output": {"name": "Identity:0", "dtype": "DT_FLOAT", "tensorShape": {"dim": [{"size": "-1"}, {"size": "12"}]}}}}, "modelTopology": {"node": [{"name": "StatefulPartitionedCall/sequential_4/rescaling/PartitionedCall/Cast/x", "op": "Const", "attr": {"value": {"tensor": {"dtype": "DT_FLOAT", "tensorShape": {}}}, "dtype": {"type": "DT_FLOAT"}}}, {"name": "StatefulPartitionedCall/sequential_4/rescaling/PartitionedCall/Cast_1/x", "op": "Const", "attr": {"dtype": {"type": "DT_FLOAT"}, "value": {"tensor": {"dtype": "DT_FLOAT", "tensorShape": {}}}}}, {"name": "StatefulPartitionedCall/sequential_4/mobilenetv2_1.00_224/block_1_pad/PartitionedCall/Pad/paddings", "op": "Const", "attr": {"value": {"tensor": {"dtype": "DT_INT32", "tensorShape": {"dim": [{"size": "4"}, {"size": "2"}]}}}, "dtype": {"type": "DT_INT32"}}}, {"name": "StatefulPartitionedCall/sequential_4/mobilenetv2_1.00_224/block_3_pad/PartitionedCall/Pad/paddings", "op": "Const", "attr": {"dtype": {"type": "DT_INT32"}, "value": {"tensor": {"dtype": "DT_INT32", "tensorShape": {"dim": [{"size": "4"}, {"size": "2"}]}}}}}, {"name": "StatefulPartitionedCall/sequential_4/mobilenetv2_1.00_224/block_6_pad/PartitionedCall/Pad/paddings", "op": "Const", "attr": {"dtype": {"type": "DT_INT32"}, "value": {"tensor": {"dtype": "DT_INT32", "tensorShape": {"dim": [{"size": "4"}, {"size": "2"}]}}}}}, {"name": "StatefulPartitionedCall/sequential_4/mobilenetv2_1.00_224/block_13_pad/PartitionedCall/Pad/paddings", "op": "Const", "attr": {"value": {"tensor": {"dtype": "DT_INT32", "tensorShape": {"dim": [{"size": "4"}, {"size": "2"}]}}}, "dtype": {"type": "DT_INT32"}}}, {"name": "StatefulPartitionedCall/sequential_4/global_average_pooling2d/Mean/reduction_indices", "op": "Const", "attr": {"dtype": {"type": "DT_INT32"}, "value": {"tensor": {"dtype": "DT_INT32", "tensorShape": {"dim": [{"size": "2"}]}}}}}, {"name": "StatefulPartitionedCall/sequential_4/dense_4/MatMul/ReadVariableOp", "op": "Const", "attr": {"value": {"tensor": {"dtype": "DT_FLOAT", "tensorShape": {"dim": [{"size": "1280"}, {"size": "512"}]}}}, "dtype": {"type": "DT_FLOAT"}}}, {"name": "StatefulPartitionedCall/sequential_4/dense_4/BiasAdd/ReadVariableOp", "op": "Const", "attr": {"dtype": {"type": "DT_FLOAT"}, "value": {"tensor": {"dtype": "DT_FLOAT", "tensorShape": {"dim": [{"size": "512"}]}}}}}, {"name": "StatefulPartitionedCall/sequential_4/final_output/MatMul/ReadVariableOp", "op": "Const", "attr": {"dtype": {"type": "DT_FLOAT"}, "value": {"tensor": {"dtype": "DT_FLOAT", "tensorShape": {"dim": [{"size": "512"}, {"size": "12"}]}}}}}, {"name": "StatefulPartitionedCall/sequential_4/final_output/BiasAdd/ReadVariableOp", "op": "Const", "attr": {"value": {"tensor": {"dtype": "DT_FLOAT", "tensorShape": {"dim": [{"size": "12"}]}}}, "dtype": {"type": "DT_FLOAT"}}}, {"name": "input_2", "op": "Placeholder", "attr": {"dtype": {"type": "DT_FLOAT"}, "shape": {"shape": {"dim": [{"size": "-1"}, {"size": "224"}, {"size": "224"}, {"size": "3"}]}}}}, {"name": "StatefulPartitionedCall/sequential_4/mobilenetv2_1.00_224/Conv1/StatefulPartitionedCall/Conv2D_weights", "op": "Const", "attr": {"dtype": {"type": "DT_FLOAT"}, "value": {"tensor": {"dtype": "DT_FLOAT", "tensorShape": {"dim": [{"size": "3"}, {"size": "3"}, {"size": "3"}, {"size": "32"}]}}}}}, {"name": "StatefulPartitionedCall/sequential_4/mobilenetv2_1.00_224/Conv1/StatefulPartitionedCall/Conv2D_bn_offset", "op": "Const", "attr": {"value": {"tensor": {"dtype": "DT_FLOAT", "tensorShape": {"dim": [{"size": "32"}]}}}, "dtype": {"type": "DT_FLOAT"}}}, {"name": "StatefulPartitionedCall/sequential_4/mobilenetv2_1.00_224/block_14_expand/StatefulPartitionedCall/Conv2D_bn_offset", "op": "Const", "attr": {"value": {"tensor": {"dtype": "DT_FLOAT", "tensorShape": {"dim": [{"size": "960"}]}}}, "dtype": {"type": "DT_FLOAT"}}}, {"name": "StatefulPartitionedCall/sequential_4/mobilenetv2_1.00_224/expanded_conv_depthwise/StatefulPartitionedCall/depthwise_weights", "op": "Const", "attr": {"value": {"tensor": {"dtype": "DT_FLOAT", "tensorShape": {"dim": [{"size": "3"}, {"size": "3"}, {"size": "32"}, {"size": "1"}]}}}, "dtype": {"type": "DT_FLOAT"}}}, {"name": "StatefulPartitionedCall/sequential_4/mobilenetv2_1.00_224/expanded_conv_depthwise/StatefulPartitionedCall/depthwise_bn_offset", "op": "Const", "attr": {"dtype": {"type": "DT_FLOAT"}, "value": {"tensor": {"dtype": "DT_FLOAT", "tensorShape": {"dim": [{"size": "32"}]}}}}}, {"name": "StatefulPartitionedCall/sequential_4/mobilenetv2_1.00_224/expanded_conv_project/StatefulPartitionedCall/Conv2D_weights", "op": "Const", "attr": {"dtype": {"type": "DT_FLOAT"}, "value": {"tensor": {"dtype": "DT_FLOAT", "tensorShape": {"dim": [{"size": "1"}, {"size": "1"}, {"size": "32"}, {"size": "16"}]}}}}}, {"name": "StatefulPartitionedCall/sequential_4/mobilenetv2_1.00_224/Conv_1/StatefulPartitionedCall/Conv2D_weights", "op": "Const", "attr": {"dtype": {"type": "DT_FLOAT"}, "value": {"tensor": {"dtype": "DT_FLOAT", "tensorShape": {"dim": [{"size": "1"}, {"size": "1"}, {"size": "320"}, {"size": "1280"}]}}}}}, {"name": "StatefulPartitionedCall/sequential_4/mobilenetv2_1.00_224/expanded_conv_project/StatefulPartitionedCall/Conv2D_bn_offset", "op": "Const", "attr": {"dtype": {"type": "DT_FLOAT"}, "value": {"tensor": {"dtype": "DT_FLOAT", "tensorShape": {"dim": [{"size": "16"}]}}}}}, {"name": "StatefulPartitionedCall/sequential_4/mobilenetv2_1.00_224/block_1_expand/StatefulPartitionedCall/Conv2D_weights", "op": "Const", "attr": {"value": {"tensor": {"dtype": "DT_FLOAT", "tensorShape": {"dim": [{"size": "1"}, {"size": "1"}, {"size": "16"}, {"size": "96"}]}}}, "dtype": {"type": "DT_FLOAT"}}}, {"name": "StatefulPartitionedCall/sequential_4/mobilenetv2_1.00_224/block_1_expand/StatefulPartitionedCall/Conv2D_bn_offset", "op": "Const", "attr": {"dtype": {"type": "DT_FLOAT"}, "value": {"tensor": {"dtype": "DT_FLOAT", "tensorShape": {"dim": [{"size": "96"}]}}}}}, {"name": "StatefulPartitionedCall/sequential_4/mobilenetv2_1.00_224/block_14_depthwise/StatefulPartitionedCall/depthwise_weights", "op": "Const", "attr": {"value": {"tensor": {"dtype": "DT_FLOAT", "tensorShape": {"dim": [{"size": "3"}, {"size": "3"}, {"size": "960"}, {"size": "1"}]}}}, "dtype": {"type": "DT_FLOAT"}}}, {"name": "StatefulPartitionedCall/sequential_4/mobilenetv2_1.00_224/block_1_depthwise/StatefulPartitionedCall/depthwise_weights", "op": "Const", "attr": {"value": {"tensor": {"dtype": "DT_FLOAT", "tensorShape": {"dim": [{"size": "3"}, {"size": "3"}, {"size": "96"}, {"size": "1"}]}}}, "dtype": {"type": "DT_FLOAT"}}}, {"name": "StatefulPartitionedCall/sequential_4/mobilenetv2_1.00_224/block_1_depthwise/StatefulPartitionedCall/depthwise_bn_offset", "op": "Const", "attr": {"dtype": {"type": "DT_FLOAT"}, "value": {"tensor": {"dtype": "DT_FLOAT", "tensorShape": {"dim": [{"size": "96"}]}}}}}, {"name": "StatefulPartitionedCall/sequential_4/mobilenetv2_1.00_224/block_1_project/StatefulPartitionedCall/Conv2D_weights", "op": "Const", "attr": {"value": {"tensor": {"dtype": "DT_FLOAT", "tensorShape": {"dim": [{"size": "1"}, {"size": "1"}, {"size": "96"}, {"size": "24"}]}}}, "dtype": {"type": "DT_FLOAT"}}}, {"name": "StatefulPartitionedCall/sequential_4/mobilenetv2_1.00_224/block_1_project/StatefulPartitionedCall/Conv2D_bn_offset", "op": "Const", "attr": {"dtype": {"type": "DT_FLOAT"}, "value": {"tensor": {"dtype": "DT_FLOAT", "tensorShape": {"dim": [{"size": "24"}]}}}}}, {"name": "StatefulPartitionedCall/sequential_4/mobilenetv2_1.00_224/block_2_expand/StatefulPartitionedCall/Conv2D_weights", "op": "Const", "attr": {"value": {"tensor": {"dtype": "DT_FLOAT", "tensorShape": {"dim": [{"size": "1"}, {"size": "1"}, {"size": "24"}, {"size": "144"}]}}}, "dtype": {"type": "DT_FLOAT"}}}, {"name": "StatefulPartitionedCall/sequential_4/mobilenetv2_1.00_224/block_14_depthwise/StatefulPartitionedCall/depthwise_bn_offset", "op": "Const", "attr": {"dtype": {"type": "DT_FLOAT"}, "value": {"tensor": {"dtype": "DT_FLOAT", "tensorShape": {"dim": [{"size": "960"}]}}}}}, {"name": "StatefulPartitionedCall/sequential_4/mobilenetv2_1.00_224/block_2_expand/StatefulPartitionedCall/Conv2D_bn_offset", "op": "Const", "attr": {"value": {"tensor": {"dtype": "DT_FLOAT", "tensorShape": {"dim": [{"size": "144"}]}}}, "dtype": {"type": "DT_FLOAT"}}}, {"name": "StatefulPartitionedCall/sequential_4/mobilenetv2_1.00_224/block_2_depthwise/StatefulPartitionedCall/depthwise_weights", "op": "Const", "attr": {"dtype": {"type": "DT_FLOAT"}, "value": {"tensor": {"dtype": "DT_FLOAT", "tensorShape": {"dim": [{"size": "3"}, {"size": "3"}, {"size": "144"}, {"size": "1"}]}}}}}, {"name": "StatefulPartitionedCall/sequential_4/mobilenetv2_1.00_224/block_2_depthwise/StatefulPartitionedCall/depthwise_bn_offset", "op": "Const", "attr": {"value": {"tensor": {"dtype": "DT_FLOAT", "tensorShape": {"dim": [{"size": "144"}]}}}, "dtype": {"type": "DT_FLOAT"}}}, {"name": "StatefulPartitionedCall/sequential_4/mobilenetv2_1.00_224/block_2_project/StatefulPartitionedCall/Conv2D_weights", "op": "Const", "attr": {"dtype": {"type": "DT_FLOAT"}, "value": {"tensor": {"dtype": "DT_FLOAT", "tensorShape": {"dim": [{"size": "1"}, {"size": "1"}, {"size": "144"}, {"size": "24"}]}}}}}, {"name": "StatefulPartitionedCall/sequential_4/mobilenetv2_1.00_224/block_2_project/StatefulPartitionedCall/Conv2D_bn_offset", "op": "Const", "attr": {"dtype": {"type": "DT_FLOAT"}, "value": {"tensor": {"dtype": "DT_FLOAT", "tensorShape": {"dim": [{"size": "24"}]}}}}}, {"name": "StatefulPartitionedCall/sequential_4/mobilenetv2_1.00_224/block_3_expand/StatefulPartitionedCall/Conv2D_weights", "op": "Const", "attr": {"value": {"tensor": {"dtype": "DT_FLOAT", "tensorShape": {"dim": [{"size": "1"}, {"size": "1"}, {"size": "24"}, {"size": "144"}]}}}, "dtype": {"type": "DT_FLOAT"}}}, {"name": "StatefulPartitionedCall/sequential_4/mobilenetv2_1.00_224/block_14_project/StatefulPartitionedCall/Conv2D_weights", "op": "Const", "attr": {"value": {"tensor": {"dtype": "DT_FLOAT", "tensorShape": {"dim": [{"size": "1"}, {"size": "1"}, {"size": "960"}, {"size": "160"}]}}}, "dtype": {"type": "DT_FLOAT"}}}, {"name": "StatefulPartitionedCall/sequential_4/mobilenetv2_1.00_224/block_3_expand/StatefulPartitionedCall/Conv2D_bn_offset", "op": "Const", "attr": {"value": {"tensor": {"dtype": "DT_FLOAT", "tensorShape": {"dim": [{"size": "144"}]}}}, "dtype": {"type": "DT_FLOAT"}}}, {"name": "StatefulPartitionedCall/sequential_4/mobilenetv2_1.00_224/block_3_depthwise/StatefulPartitionedCall/depthwise_weights", "op": "Const", "attr": {"dtype": {"type": "DT_FLOAT"}, "value": {"tensor": {"dtype": "DT_FLOAT", "tensorShape": {"dim": [{"size": "3"}, {"size": "3"}, {"size": "144"}, {"size": "1"}]}}}}}, {"name": "StatefulPartitionedCall/sequential_4/mobilenetv2_1.00_224/block_3_depthwise/StatefulPartitionedCall/depthwise_bn_offset", "op": "Const", "attr": {"value": {"tensor": {"dtype": "DT_FLOAT", "tensorShape": {"dim": [{"size": "144"}]}}}, "dtype": {"type": "DT_FLOAT"}}}, {"name": "StatefulPartitionedCall/sequential_4/mobilenetv2_1.00_224/block_3_project/StatefulPartitionedCall/Conv2D_weights", "op": "Const", "attr": {"dtype": {"type": "DT_FLOAT"}, "value": {"tensor": {"dtype": "DT_FLOAT", "tensorShape": {"dim": [{"size": "1"}, {"size": "1"}, {"size": "144"}, {"size": "32"}]}}}}}, {"name": "StatefulPartitionedCall/sequential_4/mobilenetv2_1.00_224/block_14_project/StatefulPartitionedCall/Conv2D_bn_offset", "op": "Const", "attr": {"dtype": {"type": "DT_FLOAT"}, "value": {"tensor": {"dtype": "DT_FLOAT", "tensorShape": {"dim": [{"size": "160"}]}}}}}, {"name": "StatefulPartitionedCall/sequential_4/mobilenetv2_1.00_224/block_3_project/StatefulPartitionedCall/Conv2D_bn_offset", "op": "Const", "attr": {"value": {"tensor": {"dtype": "DT_FLOAT", "tensorShape": {"dim": [{"size": "32"}]}}}, "dtype": {"type": "DT_FLOAT"}}}, {"name": "StatefulPartitionedCall/sequential_4/mobilenetv2_1.00_224/block_4_expand/StatefulPartitionedCall/Conv2D_weights", "op": "Const", "attr": {"dtype": {"type": "DT_FLOAT"}, "value": {"tensor": {"dtype": "DT_FLOAT", "tensorShape": {"dim": [{"size": "1"}, {"size": "1"}, {"size": "32"}, {"size": "192"}]}}}}}, {"name": "StatefulPartitionedCall/sequential_4/mobilenetv2_1.00_224/block_4_expand/StatefulPartitionedCall/Conv2D_bn_offset", "op": "Const", "attr": {"value": {"tensor": {"dtype": "DT_FLOAT", "tensorShape": {"dim": [{"size": "192"}]}}}, "dtype": {"type": "DT_FLOAT"}}}, {"name": "StatefulPartitionedCall/sequential_4/mobilenetv2_1.00_224/block_4_depthwise/StatefulPartitionedCall/depthwise_weights", "op": "Const", "attr": {"value": {"tensor": {"dtype": "DT_FLOAT", "tensorShape": {"dim": [{"size": "3"}, {"size": "3"}, {"size": "192"}, {"size": "1"}]}}}, "dtype": {"type": "DT_FLOAT"}}}, {"name": "StatefulPartitionedCall/sequential_4/mobilenetv2_1.00_224/block_4_depthwise/StatefulPartitionedCall/depthwise_bn_offset", "op": "Const", "attr": {"dtype": {"type": "DT_FLOAT"}, "value": {"tensor": {"dtype": "DT_FLOAT", "tensorShape": {"dim": [{"size": "192"}]}}}}}, {"name": "StatefulPartitionedCall/sequential_4/mobilenetv2_1.00_224/block_4_project/StatefulPartitionedCall/Conv2D_weights", "op": "Const", "attr": {"dtype": {"type": "DT_FLOAT"}, "value": {"tensor": {"dtype": "DT_FLOAT", "tensorShape": {"dim": [{"size": "1"}, {"size": "1"}, {"size": "192"}, {"size": "32"}]}}}}}, {"name": "StatefulPartitionedCall/sequential_4/mobilenetv2_1.00_224/block_15_expand/StatefulPartitionedCall/Conv2D_weights", "op": "Const", "attr": {"value": {"tensor": {"dtype": "DT_FLOAT", "tensorShape": {"dim": [{"size": "1"}, {"size": "1"}, {"size": "160"}, {"size": "960"}]}}}, "dtype": {"type": "DT_FLOAT"}}}, {"name": "StatefulPartitionedCall/sequential_4/mobilenetv2_1.00_224/block_4_project/StatefulPartitionedCall/Conv2D_bn_offset", "op": "Const", "attr": {"dtype": {"type": "DT_FLOAT"}, "value": {"tensor": {"dtype": "DT_FLOAT", "tensorShape": {"dim": [{"size": "32"}]}}}}}, {"name": "StatefulPartitionedCall/sequential_4/mobilenetv2_1.00_224/block_5_expand/StatefulPartitionedCall/Conv2D_weights", "op": "Const", "attr": {"dtype": {"type": "DT_FLOAT"}, "value": {"tensor": {"dtype": "DT_FLOAT", "tensorShape": {"dim": [{"size": "1"}, {"size": "1"}, {"size": "32"}, {"size": "192"}]}}}}}, {"name": "StatefulPartitionedCall/sequential_4/mobilenetv2_1.00_224/Conv_1/StatefulPartitionedCall/Conv2D_bn_offset", "op": "Const", "attr": {"value": {"tensor": {"dtype": "DT_FLOAT", "tensorShape": {"dim": [{"size": "1280"}]}}}, "dtype": {"type": "DT_FLOAT"}}}, {"name": "StatefulPartitionedCall/sequential_4/mobilenetv2_1.00_224/block_5_expand/StatefulPartitionedCall/Conv2D_bn_offset", "op": "Const", "attr": {"dtype": {"type": "DT_FLOAT"}, "value": {"tensor": {"dtype": "DT_FLOAT", "tensorShape": {"dim": [{"size": "192"}]}}}}}, {"name": "StatefulPartitionedCall/sequential_4/mobilenetv2_1.00_224/block_15_expand/StatefulPartitionedCall/Conv2D_bn_offset", "op": "Const", "attr": {"dtype": {"type": "DT_FLOAT"}, "value": {"tensor": {"dtype": "DT_FLOAT", "tensorShape": {"dim": [{"size": "960"}]}}}}}, {"name": "StatefulPartitionedCall/sequential_4/mobilenetv2_1.00_224/block_5_depthwise/StatefulPartitionedCall/depthwise_weights", "op": "Const", "attr": {"value": {"tensor": {"dtype": "DT_FLOAT", "tensorShape": {"dim": [{"size": "3"}, {"size": "3"}, {"size": "192"}, {"size": "1"}]}}}, "dtype": {"type": "DT_FLOAT"}}}, {"name": "StatefulPartitionedCall/sequential_4/mobilenetv2_1.00_224/block_5_depthwise/StatefulPartitionedCall/depthwise_bn_offset", "op": "Const", "attr": {"dtype": {"type": "DT_FLOAT"}, "value": {"tensor": {"dtype": "DT_FLOAT", "tensorShape": {"dim": [{"size": "192"}]}}}}}, {"name": "StatefulPartitionedCall/sequential_4/mobilenetv2_1.00_224/block_5_project/StatefulPartitionedCall/Conv2D_weights", "op": "Const", "attr": {"value": {"tensor": {"dtype": "DT_FLOAT", "tensorShape": {"dim": [{"size": "1"}, {"size": "1"}, {"size": "192"}, {"size": "32"}]}}}, "dtype": {"type": "DT_FLOAT"}}}, {"name": "StatefulPartitionedCall/sequential_4/mobilenetv2_1.00_224/block_5_project/StatefulPartitionedCall/Conv2D_bn_offset", "op": "Const", "attr": {"value": {"tensor": {"dtype": "DT_FLOAT", "tensorShape": {"dim": [{"size": "32"}]}}}, "dtype": {"type": "DT_FLOAT"}}}, {"name": "StatefulPartitionedCall/sequential_4/mobilenetv2_1.00_224/block_6_expand/StatefulPartitionedCall/Conv2D_weights", "op": "Const", "attr": {"value": {"tensor": {"dtype": "DT_FLOAT", "tensorShape": {"dim": [{"size": "1"}, {"size": "1"}, {"size": "32"}, {"size": "192"}]}}}, "dtype": {"type": "DT_FLOAT"}}}, {"name": "StatefulPartitionedCall/sequential_4/mobilenetv2_1.00_224/block_6_expand/StatefulPartitionedCall/Conv2D_bn_offset", "op": "Const", "attr": {"dtype": {"type": "DT_FLOAT"}, "value": {"tensor": {"dtype": "DT_FLOAT", "tensorShape": {"dim": [{"size": "192"}]}}}}}, {"name": "StatefulPartitionedCall/sequential_4/mobilenetv2_1.00_224/block_15_depthwise/StatefulPartitionedCall/depthwise_weights", "op": "Const", "attr": {"dtype": {"type": "DT_FLOAT"}, "value": {"tensor": {"dtype": "DT_FLOAT", "tensorShape": {"dim": [{"size": "3"}, {"size": "3"}, {"size": "960"}, {"size": "1"}]}}}}}, {"name": "StatefulPartitionedCall/sequential_4/mobilenetv2_1.00_224/block_6_depthwise/StatefulPartitionedCall/depthwise_weights", "op": "Const", "attr": {"value": {"tensor": {"dtype": "DT_FLOAT", "tensorShape": {"dim": [{"size": "3"}, {"size": "3"}, {"size": "192"}, {"size": "1"}]}}}, "dtype": {"type": "DT_FLOAT"}}}, {"name": "StatefulPartitionedCall/sequential_4/mobilenetv2_1.00_224/block_6_depthwise/StatefulPartitionedCall/depthwise_bn_offset", "op": "Const", "attr": {"dtype": {"type": "DT_FLOAT"}, "value": {"tensor": {"dtype": "DT_FLOAT", "tensorShape": {"dim": [{"size": "192"}]}}}}}, {"name": "StatefulPartitionedCall/sequential_4/mobilenetv2_1.00_224/block_6_project/StatefulPartitionedCall/Conv2D_weights", "op": "Const", "attr": {"dtype": {"type": "DT_FLOAT"}, "value": {"tensor": {"dtype": "DT_FLOAT", "tensorShape": {"dim": [{"size": "1"}, {"size": "1"}, {"size": "192"}, {"size": "64"}]}}}}}, {"name": "StatefulPartitionedCall/sequential_4/mobilenetv2_1.00_224/block_6_project/StatefulPartitionedCall/Conv2D_bn_offset", "op": "Const", "attr": {"value": {"tensor": {"dtype": "DT_FLOAT", "tensorShape": {"dim": [{"size": "64"}]}}}, "dtype": {"type": "DT_FLOAT"}}}, {"name": "StatefulPartitionedCall/sequential_4/mobilenetv2_1.00_224/block_7_expand/StatefulPartitionedCall/Conv2D_weights", "op": "Const", "attr": {"dtype": {"type": "DT_FLOAT"}, "value": {"tensor": {"dtype": "DT_FLOAT", "tensorShape": {"dim": [{"size": "1"}, {"size": "1"}, {"size": "64"}, {"size": "384"}]}}}}}, {"name": "StatefulPartitionedCall/sequential_4/mobilenetv2_1.00_224/block_15_depthwise/StatefulPartitionedCall/depthwise_bn_offset", "op": "Const", "attr": {"dtype": {"type": "DT_FLOAT"}, "value": {"tensor": {"dtype": "DT_FLOAT", "tensorShape": {"dim": [{"size": "960"}]}}}}}, {"name": "StatefulPartitionedCall/sequential_4/mobilenetv2_1.00_224/block_7_expand/StatefulPartitionedCall/Conv2D_bn_offset", "op": "Const", "attr": {"value": {"tensor": {"dtype": "DT_FLOAT", "tensorShape": {"dim": [{"size": "384"}]}}}, "dtype": {"type": "DT_FLOAT"}}}, {"name": "StatefulPartitionedCall/sequential_4/mobilenetv2_1.00_224/block_7_depthwise/StatefulPartitionedCall/depthwise_weights", "op": "Const", "attr": {"value": {"tensor": {"dtype": "DT_FLOAT", "tensorShape": {"dim": [{"size": "3"}, {"size": "3"}, {"size": "384"}, {"size": "1"}]}}}, "dtype": {"type": "DT_FLOAT"}}}, {"name": "StatefulPartitionedCall/sequential_4/mobilenetv2_1.00_224/block_7_depthwise/StatefulPartitionedCall/depthwise_bn_offset", "op": "Const", "attr": {"value": {"tensor": {"dtype": "DT_FLOAT", "tensorShape": {"dim": [{"size": "384"}]}}}, "dtype": {"type": "DT_FLOAT"}}}, {"name": "StatefulPartitionedCall/sequential_4/mobilenetv2_1.00_224/block_7_project/StatefulPartitionedCall/Conv2D_weights", "op": "Const", "attr": {"value": {"tensor": {"dtype": "DT_FLOAT", "tensorShape": {"dim": [{"size": "1"}, {"size": "1"}, {"size": "384"}, {"size": "64"}]}}}, "dtype": {"type": "DT_FLOAT"}}}, {"name": "StatefulPartitionedCall/sequential_4/mobilenetv2_1.00_224/block_7_project/StatefulPartitionedCall/Conv2D_bn_offset", "op": "Const", "attr": {"value": {"tensor": {"dtype": "DT_FLOAT", "tensorShape": {"dim": [{"size": "64"}]}}}, "dtype": {"type": "DT_FLOAT"}}}, {"name": "StatefulPartitionedCall/sequential_4/mobilenetv2_1.00_224/block_8_expand/StatefulPartitionedCall/Conv2D_weights", "op": "Const", "attr": {"dtype": {"type": "DT_FLOAT"}, "value": {"tensor": {"dtype": "DT_FLOAT", "tensorShape": {"dim": [{"size": "1"}, {"size": "1"}, {"size": "64"}, {"size": "384"}]}}}}}, {"name": "StatefulPartitionedCall/sequential_4/mobilenetv2_1.00_224/block_15_project/StatefulPartitionedCall/Conv2D_weights", "op": "Const", "attr": {"dtype": {"type": "DT_FLOAT"}, "value": {"tensor": {"dtype": "DT_FLOAT", "tensorShape": {"dim": [{"size": "1"}, {"size": "1"}, {"size": "960"}, {"size": "160"}]}}}}}, {"name": "StatefulPartitionedCall/sequential_4/mobilenetv2_1.00_224/block_8_expand/StatefulPartitionedCall/Conv2D_bn_offset", "op": "Const", "attr": {"dtype": {"type": "DT_FLOAT"}, "value": {"tensor": {"dtype": "DT_FLOAT", "tensorShape": {"dim": [{"size": "384"}]}}}}}, {"name": "StatefulPartitionedCall/sequential_4/mobilenetv2_1.00_224/block_8_depthwise/StatefulPartitionedCall/depthwise_weights", "op": "Const", "attr": {"dtype": {"type": "DT_FLOAT"}, "value": {"tensor": {"dtype": "DT_FLOAT", "tensorShape": {"dim": [{"size": "3"}, {"size": "3"}, {"size": "384"}, {"size": "1"}]}}}}}, {"name": "StatefulPartitionedCall/sequential_4/mobilenetv2_1.00_224/block_8_depthwise/StatefulPartitionedCall/depthwise_bn_offset", "op": "Const", "attr": {"dtype": {"type": "DT_FLOAT"}, "value": {"tensor": {"dtype": "DT_FLOAT", "tensorShape": {"dim": [{"size": "384"}]}}}}}, {"name": "StatefulPartitionedCall/sequential_4/mobilenetv2_1.00_224/block_8_project/StatefulPartitionedCall/Conv2D_weights", "op": "Const", "attr": {"dtype": {"type": "DT_FLOAT"}, "value": {"tensor": {"dtype": "DT_FLOAT", "tensorShape": {"dim": [{"size": "1"}, {"size": "1"}, {"size": "384"}, {"size": "64"}]}}}}}, {"name": "StatefulPartitionedCall/sequential_4/mobilenetv2_1.00_224/block_15_project/StatefulPartitionedCall/Conv2D_bn_offset", "op": "Const", "attr": {"dtype": {"type": "DT_FLOAT"}, "value": {"tensor": {"dtype": "DT_FLOAT", "tensorShape": {"dim": [{"size": "160"}]}}}}}, {"name": "StatefulPartitionedCall/sequential_4/mobilenetv2_1.00_224/block_8_project/StatefulPartitionedCall/Conv2D_bn_offset", "op": "Const", "attr": {"dtype": {"type": "DT_FLOAT"}, "value": {"tensor": {"dtype": "DT_FLOAT", "tensorShape": {"dim": [{"size": "64"}]}}}}}, {"name": "StatefulPartitionedCall/sequential_4/mobilenetv2_1.00_224/block_9_expand/StatefulPartitionedCall/Conv2D_weights", "op": "Const", "attr": {"value": {"tensor": {"dtype": "DT_FLOAT", "tensorShape": {"dim": [{"size": "1"}, {"size": "1"}, {"size": "64"}, {"size": "384"}]}}}, "dtype": {"type": "DT_FLOAT"}}}, {"name": "StatefulPartitionedCall/sequential_4/mobilenetv2_1.00_224/block_9_expand/StatefulPartitionedCall/Conv2D_bn_offset", "op": "Const", "attr": {"dtype": {"type": "DT_FLOAT"}, "value": {"tensor": {"dtype": "DT_FLOAT", "tensorShape": {"dim": [{"size": "384"}]}}}}}, {"name": "StatefulPartitionedCall/sequential_4/mobilenetv2_1.00_224/block_9_depthwise/StatefulPartitionedCall/depthwise_weights", "op": "Const", "attr": {"value": {"tensor": {"dtype": "DT_FLOAT", "tensorShape": {"dim": [{"size": "3"}, {"size": "3"}, {"size": "384"}, {"size": "1"}]}}}, "dtype": {"type": "DT_FLOAT"}}}, {"name": "StatefulPartitionedCall/sequential_4/mobilenetv2_1.00_224/block_9_depthwise/StatefulPartitionedCall/depthwise_bn_offset", "op": "Const", "attr": {"dtype": {"type": "DT_FLOAT"}, "value": {"tensor": {"dtype": "DT_FLOAT", "tensorShape": {"dim": [{"size": "384"}]}}}}}, {"name": "StatefulPartitionedCall/sequential_4/mobilenetv2_1.00_224/block_9_project/StatefulPartitionedCall/Conv2D_weights", "op": "Const", "attr": {"value": {"tensor": {"dtype": "DT_FLOAT", "tensorShape": {"dim": [{"size": "1"}, {"size": "1"}, {"size": "384"}, {"size": "64"}]}}}, "dtype": {"type": "DT_FLOAT"}}}, {"name": "StatefulPartitionedCall/sequential_4/mobilenetv2_1.00_224/block_16_expand/StatefulPartitionedCall/Conv2D_weights", "op": "Const", "attr": {"dtype": {"type": "DT_FLOAT"}, "value": {"tensor": {"dtype": "DT_FLOAT", "tensorShape": {"dim": [{"size": "1"}, {"size": "1"}, {"size": "160"}, {"size": "960"}]}}}}}, {"name": "StatefulPartitionedCall/sequential_4/mobilenetv2_1.00_224/block_9_project/StatefulPartitionedCall/Conv2D_bn_offset", "op": "Const", "attr": {"value": {"tensor": {"dtype": "DT_FLOAT", "tensorShape": {"dim": [{"size": "64"}]}}}, "dtype": {"type": "DT_FLOAT"}}}, {"name": "StatefulPartitionedCall/sequential_4/mobilenetv2_1.00_224/block_10_expand/StatefulPartitionedCall/Conv2D_weights", "op": "Const", "attr": {"dtype": {"type": "DT_FLOAT"}, "value": {"tensor": {"dtype": "DT_FLOAT", "tensorShape": {"dim": [{"size": "1"}, {"size": "1"}, {"size": "64"}, {"size": "384"}]}}}}}, {"name": "StatefulPartitionedCall/sequential_4/mobilenetv2_1.00_224/block_10_expand/StatefulPartitionedCall/Conv2D_bn_offset", "op": "Const", "attr": {"dtype": {"type": "DT_FLOAT"}, "value": {"tensor": {"dtype": "DT_FLOAT", "tensorShape": {"dim": [{"size": "384"}]}}}}}, {"name": "StatefulPartitionedCall/sequential_4/mobilenetv2_1.00_224/block_16_expand/StatefulPartitionedCall/Conv2D_bn_offset", "op": "Const", "attr": {"value": {"tensor": {"dtype": "DT_FLOAT", "tensorShape": {"dim": [{"size": "960"}]}}}, "dtype": {"type": "DT_FLOAT"}}}, {"name": "StatefulPartitionedCall/sequential_4/mobilenetv2_1.00_224/block_10_depthwise/StatefulPartitionedCall/depthwise_weights", "op": "Const", "attr": {"value": {"tensor": {"dtype": "DT_FLOAT", "tensorShape": {"dim": [{"size": "3"}, {"size": "3"}, {"size": "384"}, {"size": "1"}]}}}, "dtype": {"type": "DT_FLOAT"}}}, {"name": "StatefulPartitionedCall/sequential_4/mobilenetv2_1.00_224/block_10_depthwise/StatefulPartitionedCall/depthwise_bn_offset", "op": "Const", "attr": {"dtype": {"type": "DT_FLOAT"}, "value": {"tensor": {"dtype": "DT_FLOAT", "tensorShape": {"dim": [{"size": "384"}]}}}}}, {"name": "StatefulPartitionedCall/sequential_4/mobilenetv2_1.00_224/block_10_project/StatefulPartitionedCall/Conv2D_weights", "op": "Const", "attr": {"value": {"tensor": {"dtype": "DT_FLOAT", "tensorShape": {"dim": [{"size": "1"}, {"size": "1"}, {"size": "384"}, {"size": "96"}]}}}, "dtype": {"type": "DT_FLOAT"}}}, {"name": "StatefulPartitionedCall/sequential_4/mobilenetv2_1.00_224/block_10_project/StatefulPartitionedCall/Conv2D_bn_offset", "op": "Const", "attr": {"dtype": {"type": "DT_FLOAT"}, "value": {"tensor": {"dtype": "DT_FLOAT", "tensorShape": {"dim": [{"size": "96"}]}}}}}, {"name": "StatefulPartitionedCall/sequential_4/mobilenetv2_1.00_224/block_11_expand/StatefulPartitionedCall/Conv2D_weights", "op": "Const", "attr": {"value": {"tensor": {"dtype": "DT_FLOAT", "tensorShape": {"dim": [{"size": "1"}, {"size": "1"}, {"size": "96"}, {"size": "576"}]}}}, "dtype": {"type": "DT_FLOAT"}}}, {"name": "StatefulPartitionedCall/sequential_4/mobilenetv2_1.00_224/block_11_expand/StatefulPartitionedCall/Conv2D_bn_offset", "op": "Const", "attr": {"value": {"tensor": {"dtype": "DT_FLOAT", "tensorShape": {"dim": [{"size": "576"}]}}}, "dtype": {"type": "DT_FLOAT"}}}, {"name": "StatefulPartitionedCall/sequential_4/mobilenetv2_1.00_224/block_16_depthwise/StatefulPartitionedCall/depthwise_weights", "op": "Const", "attr": {"value": {"tensor": {"dtype": "DT_FLOAT", "tensorShape": {"dim": [{"size": "3"}, {"size": "3"}, {"size": "960"}, {"size": "1"}]}}}, "dtype": {"type": "DT_FLOAT"}}}, {"name": "StatefulPartitionedCall/sequential_4/mobilenetv2_1.00_224/block_11_depthwise/StatefulPartitionedCall/depthwise_weights", "op": "Const", "attr": {"value": {"tensor": {"dtype": "DT_FLOAT", "tensorShape": {"dim": [{"size": "3"}, {"size": "3"}, {"size": "576"}, {"size": "1"}]}}}, "dtype": {"type": "DT_FLOAT"}}}, {"name": "StatefulPartitionedCall/sequential_4/mobilenetv2_1.00_224/block_11_depthwise/StatefulPartitionedCall/depthwise_bn_offset", "op": "Const", "attr": {"value": {"tensor": {"dtype": "DT_FLOAT", "tensorShape": {"dim": [{"size": "576"}]}}}, "dtype": {"type": "DT_FLOAT"}}}, {"name": "StatefulPartitionedCall/sequential_4/mobilenetv2_1.00_224/block_11_project/StatefulPartitionedCall/Conv2D_weights", "op": "Const", "attr": {"value": {"tensor": {"dtype": "DT_FLOAT", "tensorShape": {"dim": [{"size": "1"}, {"size": "1"}, {"size": "576"}, {"size": "96"}]}}}, "dtype": {"type": "DT_FLOAT"}}}, {"name": "StatefulPartitionedCall/sequential_4/mobilenetv2_1.00_224/block_11_project/StatefulPartitionedCall/Conv2D_bn_offset", "op": "Const", "attr": {"dtype": {"type": "DT_FLOAT"}, "value": {"tensor": {"dtype": "DT_FLOAT", "tensorShape": {"dim": [{"size": "96"}]}}}}}, {"name": "StatefulPartitionedCall/sequential_4/mobilenetv2_1.00_224/block_12_expand/StatefulPartitionedCall/Conv2D_weights", "op": "Const", "attr": {"value": {"tensor": {"dtype": "DT_FLOAT", "tensorShape": {"dim": [{"size": "1"}, {"size": "1"}, {"size": "96"}, {"size": "576"}]}}}, "dtype": {"type": "DT_FLOAT"}}}, {"name": "StatefulPartitionedCall/sequential_4/mobilenetv2_1.00_224/block_16_depthwise/StatefulPartitionedCall/depthwise_bn_offset", "op": "Const", "attr": {"dtype": {"type": "DT_FLOAT"}, "value": {"tensor": {"dtype": "DT_FLOAT", "tensorShape": {"dim": [{"size": "960"}]}}}}}, {"name": "StatefulPartitionedCall/sequential_4/mobilenetv2_1.00_224/block_12_expand/StatefulPartitionedCall/Conv2D_bn_offset", "op": "Const", "attr": {"value": {"tensor": {"dtype": "DT_FLOAT", "tensorShape": {"dim": [{"size": "576"}]}}}, "dtype": {"type": "DT_FLOAT"}}}, {"name": "StatefulPartitionedCall/sequential_4/mobilenetv2_1.00_224/block_12_depthwise/StatefulPartitionedCall/depthwise_weights", "op": "Const", "attr": {"value": {"tensor": {"dtype": "DT_FLOAT", "tensorShape": {"dim": [{"size": "3"}, {"size": "3"}, {"size": "576"}, {"size": "1"}]}}}, "dtype": {"type": "DT_FLOAT"}}}, {"name": "StatefulPartitionedCall/sequential_4/mobilenetv2_1.00_224/block_12_depthwise/StatefulPartitionedCall/depthwise_bn_offset", "op": "Const", "attr": {"dtype": {"type": "DT_FLOAT"}, "value": {"tensor": {"dtype": "DT_FLOAT", "tensorShape": {"dim": [{"size": "576"}]}}}}}, {"name": "StatefulPartitionedCall/sequential_4/mobilenetv2_1.00_224/block_12_project/StatefulPartitionedCall/Conv2D_weights", "op": "Const", "attr": {"value": {"tensor": {"dtype": "DT_FLOAT", "tensorShape": {"dim": [{"size": "1"}, {"size": "1"}, {"size": "576"}, {"size": "96"}]}}}, "dtype": {"type": "DT_FLOAT"}}}, {"name": "StatefulPartitionedCall/sequential_4/mobilenetv2_1.00_224/block_12_project/StatefulPartitionedCall/Conv2D_bn_offset", "op": "Const", "attr": {"value": {"tensor": {"dtype": "DT_FLOAT", "tensorShape": {"dim": [{"size": "96"}]}}}, "dtype": {"type": "DT_FLOAT"}}}, {"name": "StatefulPartitionedCall/sequential_4/mobilenetv2_1.00_224/block_13_expand/StatefulPartitionedCall/Conv2D_weights", "op": "Const", "attr": {"dtype": {"type": "DT_FLOAT"}, "value": {"tensor": {"dtype": "DT_FLOAT", "tensorShape": {"dim": [{"size": "1"}, {"size": "1"}, {"size": "96"}, {"size": "576"}]}}}}}, {"name": "StatefulPartitionedCall/sequential_4/mobilenetv2_1.00_224/block_16_project/StatefulPartitionedCall/Conv2D_weights", "op": "Const", "attr": {"dtype": {"type": "DT_FLOAT"}, "value": {"tensor": {"dtype": "DT_FLOAT", "tensorShape": {"dim": [{"size": "1"}, {"size": "1"}, {"size": "960"}, {"size": "320"}]}}}}}, {"name": "StatefulPartitionedCall/sequential_4/mobilenetv2_1.00_224/block_13_expand/StatefulPartitionedCall/Conv2D_bn_offset", "op": "Const", "attr": {"dtype": {"type": "DT_FLOAT"}, "value": {"tensor": {"dtype": "DT_FLOAT", "tensorShape": {"dim": [{"size": "576"}]}}}}}, {"name": "StatefulPartitionedCall/sequential_4/mobilenetv2_1.00_224/block_13_depthwise/StatefulPartitionedCall/depthwise_weights", "op": "Const", "attr": {"value": {"tensor": {"dtype": "DT_FLOAT", "tensorShape": {"dim": [{"size": "3"}, {"size": "3"}, {"size": "576"}, {"size": "1"}]}}}, "dtype": {"type": "DT_FLOAT"}}}, {"name": "StatefulPartitionedCall/sequential_4/mobilenetv2_1.00_224/block_13_depthwise/StatefulPartitionedCall/depthwise_bn_offset", "op": "Const", "attr": {"value": {"tensor": {"dtype": "DT_FLOAT", "tensorShape": {"dim": [{"size": "576"}]}}}, "dtype": {"type": "DT_FLOAT"}}}, {"name": "StatefulPartitionedCall/sequential_4/mobilenetv2_1.00_224/block_13_project/StatefulPartitionedCall/Conv2D_weights", "op": "Const", "attr": {"dtype": {"type": "DT_FLOAT"}, "value": {"tensor": {"dtype": "DT_FLOAT", "tensorShape": {"dim": [{"size": "1"}, {"size": "1"}, {"size": "576"}, {"size": "160"}]}}}}}, {"name": "StatefulPartitionedCall/sequential_4/mobilenetv2_1.00_224/block_16_project/StatefulPartitionedCall/Conv2D_bn_offset", "op": "Const", "attr": {"dtype": {"type": "DT_FLOAT"}, "value": {"tensor": {"dtype": "DT_FLOAT", "tensorShape": {"dim": [{"size": "320"}]}}}}}, {"name": "StatefulPartitionedCall/sequential_4/mobilenetv2_1.00_224/block_13_project/StatefulPartitionedCall/Conv2D_bn_offset", "op": "Const", "attr": {"value": {"tensor": {"dtype": "DT_FLOAT", "tensorShape": {"dim": [{"size": "160"}]}}}, "dtype": {"type": "DT_FLOAT"}}}, {"name": "StatefulPartitionedCall/sequential_4/mobilenetv2_1.00_224/block_14_expand/StatefulPartitionedCall/Conv2D_weights", "op": "Const", "attr": {"value": {"tensor": {"dtype": "DT_FLOAT", "tensorShape": {"dim": [{"size": "1"}, {"size": "1"}, {"size": "160"}, {"size": "960"}]}}}, "dtype": {"type": "DT_FLOAT"}}}, {"name": "StatefulPartitionedCall/sequential_4/rescaling/PartitionedCall/mul", "op": "Mul", "input": ["input_2", "StatefulPartitionedCall/sequential_4/rescaling/PartitionedCall/Cast/x"], "attr": {"T": {"type": "DT_FLOAT"}}}, {"name": "StatefulPartitionedCall/sequential_4/rescaling/PartitionedCall/add", "op": "AddV2", "input": ["StatefulPartitionedCall/sequential_4/rescaling/PartitionedCall/mul", "StatefulPartitionedCall/sequential_4/rescaling/PartitionedCall/Cast_1/x"], "attr": {"T": {"type": "DT_FLOAT"}}}, {"name": "StatefulPartitionedCall/sequential_4/mobilenetv2_1.00_224/Conv1_relu/PartitionedCall/Relu6", "op": "_FusedConv2D", "input": ["StatefulPartitionedCall/sequential_4/rescaling/PartitionedCall/add", "StatefulPartitionedCall/sequential_4/mobilenetv2_1.00_224/Conv1/StatefulPartitionedCall/Conv2D_weights", "StatefulPartitionedCall/sequential_4/mobilenetv2_1.00_224/Conv1/StatefulPartitionedCall/Conv2D_bn_offset"], "device": "/device:CPU:0", "attr": {"padding": {"s": "U0FNRQ=="}, "num_args": {"i": "1"}, "explicit_paddings": {"list": {}}, "data_format": {"s": "TkhXQw=="}, "use_cudnn_on_gpu": {"b": true}, "epsilon": {"f": 0.0}, "T": {"type": "DT_FLOAT"}, "fused_ops": {"list": {"s": ["Qmlhc0FkZA==", "UmVsdTY="]}}, "strides": {"list": {"i": ["1", "2", "2", "1"]}}, "dilations": {"list": {"i": ["1", "1", "1", "1"]}}}}, {"name": "StatefulPartitionedCall/sequential_4/mobilenetv2_1.00_224/expanded_conv_depthwise/StatefulPartitionedCall/depthwise", "op": "FusedDepthwiseConv2dNative", "input": ["StatefulPartitionedCall/sequential_4/mobilenetv2_1.00_224/Conv1_relu/PartitionedCall/Relu6", "StatefulPartitionedCall/sequential_4/mobilenetv2_1.00_224/expanded_conv_depthwise/StatefulPartitionedCall/depthwise_weights", "StatefulPartitionedCall/sequential_4/mobilenetv2_1.00_224/expanded_conv_depthwise/StatefulPartitionedCall/depthwise_bn_offset"], "attr": {"T": {"type": "DT_FLOAT"}, "num_args": {"i": "1"}, "data_format": {"s": "TkhXQw=="}, "dilations": {"list": {"i": ["1", "1", "1", "1"]}}, "explicit_paddings": {"list": {}}, "fused_ops": {"list": {"s": ["Qmlhc0FkZA==", "UmVsdTY="]}}, "padding": {"s": "U0FNRQ=="}, "strides": {"list": {"i": ["1", "1", "1", "1"]}}}}, {"name": "StatefulPartitionedCall/sequential_4/mobilenetv2_1.00_224/expanded_conv_project_BN/StatefulPartitionedCall/FusedBatchNormV3", "op": "_FusedConv2D", "input": ["StatefulPartitionedCall/sequential_4/mobilenetv2_1.00_224/expanded_conv_depthwise/StatefulPartitionedCall/depthwise", "StatefulPartitionedCall/sequential_4/mobilenetv2_1.00_224/expanded_conv_project/StatefulPartitionedCall/Conv2D_weights", "StatefulPartitionedCall/sequential_4/mobilenetv2_1.00_224/expanded_conv_project/StatefulPartitionedCall/Conv2D_bn_offset"], "device": "/device:CPU:0", "attr": {"T": {"type": "DT_FLOAT"}, "strides": {"list": {"i": ["1", "1", "1", "1"]}}, "use_cudnn_on_gpu": {"b": true}, "explicit_paddings": {"list": {}}, "padding": {"s": "U0FNRQ=="}, "data_format": {"s": "TkhXQw=="}, "epsilon": {"f": 0.0}, "fused_ops": {"list": {"s": ["Qmlhc0FkZA=="]}}, "num_args": {"i": "1"}, "dilations": {"list": {"i": ["1", "1", "1", "1"]}}}}, {"name": "StatefulPartitionedCall/sequential_4/mobilenetv2_1.00_224/block_1_expand_relu/PartitionedCall/Relu6", "op": "_FusedConv2D", "input": ["StatefulPartitionedCall/sequential_4/mobilenetv2_1.00_224/expanded_conv_project_BN/StatefulPartitionedCall/FusedBatchNormV3", "StatefulPartitionedCall/sequential_4/mobilenetv2_1.00_224/block_1_expand/StatefulPartitionedCall/Conv2D_weights", "StatefulPartitionedCall/sequential_4/mobilenetv2_1.00_224/block_1_expand/StatefulPartitionedCall/Conv2D_bn_offset"], "device": "/device:CPU:0", "attr": {"num_args": {"i": "1"}, "strides": {"list": {"i": ["1", "1", "1", "1"]}}, "use_cudnn_on_gpu": {"b": true}, "epsilon": {"f": 0.0}, "T": {"type": "DT_FLOAT"}, "padding": {"s": "U0FNRQ=="}, "dilations": {"list": {"i": ["1", "1", "1", "1"]}}, "data_format": {"s": "TkhXQw=="}, "explicit_paddings": {"list": {}}, "fused_ops": {"list": {"s": ["Qmlhc0FkZA==", "UmVsdTY="]}}}}, {"name": "StatefulPartitionedCall/sequential_4/mobilenetv2_1.00_224/block_1_pad/PartitionedCall/Pad", "op": "Pad", "input": ["StatefulPartitionedCall/sequential_4/mobilenetv2_1.00_224/block_1_expand_relu/PartitionedCall/Relu6", "StatefulPartitionedCall/sequential_4/mobilenetv2_1.00_224/block_1_pad/PartitionedCall/Pad/paddings"], "attr": {"T": {"type": "DT_FLOAT"}, "Tpaddings": {"type": "DT_INT32"}}}, {"name": "StatefulPartitionedCall/sequential_4/mobilenetv2_1.00_224/block_1_depthwise/StatefulPartitionedCall/depthwise", "op": "FusedDepthwiseConv2dNative", "input": ["StatefulPartitionedCall/sequential_4/mobilenetv2_1.00_224/block_1_pad/PartitionedCall/Pad", "StatefulPartitionedCall/sequential_4/mobilenetv2_1.00_224/block_1_depthwise/StatefulPartitionedCall/depthwise_weights", "StatefulPartitionedCall/sequential_4/mobilenetv2_1.00_224/block_1_depthwise/StatefulPartitionedCall/depthwise_bn_offset"], "attr": {"explicit_paddings": {"list": {}}, "padding": {"s": "VkFMSUQ="}, "strides": {"list": {"i": ["1", "2", "2", "1"]}}, "dilations": {"list": {"i": ["1", "1", "1", "1"]}}, "data_format": {"s": "TkhXQw=="}, "T": {"type": "DT_FLOAT"}, "num_args": {"i": "1"}, "fused_ops": {"list": {"s": ["Qmlhc0FkZA==", "UmVsdTY="]}}}}, {"name": "StatefulPartitionedCall/sequential_4/mobilenetv2_1.00_224/block_1_project_BN/StatefulPartitionedCall/FusedBatchNormV3", "op": "_FusedConv2D", "input": ["StatefulPartitionedCall/sequential_4/mobilenetv2_1.00_224/block_1_depthwise/StatefulPartitionedCall/depthwise", "StatefulPartitionedCall/sequential_4/mobilenetv2_1.00_224/block_1_project/StatefulPartitionedCall/Conv2D_weights", "StatefulPartitionedCall/sequential_4/mobilenetv2_1.00_224/block_1_project/StatefulPartitionedCall/Conv2D_bn_offset"], "device": "/device:CPU:0", "attr": {"padding": {"s": "U0FNRQ=="}, "epsilon": {"f": 0.0}, "strides": {"list": {"i": ["1", "1", "1", "1"]}}, "num_args": {"i": "1"}, "dilations": {"list": {"i": ["1", "1", "1", "1"]}}, "T": {"type": "DT_FLOAT"}, "explicit_paddings": {"list": {}}, "data_format": {"s": "TkhXQw=="}, "fused_ops": {"list": {"s": ["Qmlhc0FkZA=="]}}, "use_cudnn_on_gpu": {"b": true}}}, {"name": "StatefulPartitionedCall/sequential_4/mobilenetv2_1.00_224/block_2_expand_relu/PartitionedCall/Relu6", "op": "_FusedConv2D", "input": ["StatefulPartitionedCall/sequential_4/mobilenetv2_1.00_224/block_1_project_BN/StatefulPartitionedCall/FusedBatchNormV3", "StatefulPartitionedCall/sequential_4/mobilenetv2_1.00_224/block_2_expand/StatefulPartitionedCall/Conv2D_weights", "StatefulPartitionedCall/sequential_4/mobilenetv2_1.00_224/block_2_expand/StatefulPartitionedCall/Conv2D_bn_offset"], "device": "/device:CPU:0", "attr": {"dilations": {"list": {"i": ["1", "1", "1", "1"]}}, "padding": {"s": "U0FNRQ=="}, "use_cudnn_on_gpu": {"b": true}, "explicit_paddings": {"list": {}}, "T": {"type": "DT_FLOAT"}, "epsilon": {"f": 0.0}, "fused_ops": {"list": {"s": ["Qmlhc0FkZA==", "UmVsdTY="]}}, "data_format": {"s": "TkhXQw=="}, "strides": {"list": {"i": ["1", "1", "1", "1"]}}, "num_args": {"i": "1"}}}, {"name": "StatefulPartitionedCall/sequential_4/mobilenetv2_1.00_224/block_2_depthwise/StatefulPartitionedCall/depthwise", "op": "FusedDepthwiseConv2dNative", "input": ["StatefulPartitionedCall/sequential_4/mobilenetv2_1.00_224/block_2_expand_relu/PartitionedCall/Relu6", "StatefulPartitionedCall/sequential_4/mobilenetv2_1.00_224/block_2_depthwise/StatefulPartitionedCall/depthwise_weights", "StatefulPartitionedCall/sequential_4/mobilenetv2_1.00_224/block_2_depthwise/StatefulPartitionedCall/depthwise_bn_offset"], "attr": {"data_format": {"s": "TkhXQw=="}, "dilations": {"list": {"i": ["1", "1", "1", "1"]}}, "strides": {"list": {"i": ["1", "1", "1", "1"]}}, "T": {"type": "DT_FLOAT"}, "padding": {"s": "U0FNRQ=="}, "explicit_paddings": {"list": {}}, "num_args": {"i": "1"}, "fused_ops": {"list": {"s": ["Qmlhc0FkZA==", "UmVsdTY="]}}}}, {"name": "StatefulPartitionedCall/sequential_4/mobilenetv2_1.00_224/block_2_project_BN/StatefulPartitionedCall/FusedBatchNormV3", "op": "_FusedConv2D", "input": ["StatefulPartitionedCall/sequential_4/mobilenetv2_1.00_224/block_2_depthwise/StatefulPartitionedCall/depthwise", "StatefulPartitionedCall/sequential_4/mobilenetv2_1.00_224/block_2_project/StatefulPartitionedCall/Conv2D_weights", "StatefulPartitionedCall/sequential_4/mobilenetv2_1.00_224/block_2_project/StatefulPartitionedCall/Conv2D_bn_offset"], "device": "/device:CPU:0", "attr": {"padding": {"s": "U0FNRQ=="}, "explicit_paddings": {"list": {}}, "dilations": {"list": {"i": ["1", "1", "1", "1"]}}, "use_cudnn_on_gpu": {"b": true}, "num_args": {"i": "1"}, "strides": {"list": {"i": ["1", "1", "1", "1"]}}, "T": {"type": "DT_FLOAT"}, "epsilon": {"f": 0.0}, "fused_ops": {"list": {"s": ["Qmlhc0FkZA=="]}}, "data_format": {"s": "TkhXQw=="}}}, {"name": "StatefulPartitionedCall/sequential_4/mobilenetv2_1.00_224/block_2_add/PartitionedCall/add", "op": "AddV2", "input": ["StatefulPartitionedCall/sequential_4/mobilenetv2_1.00_224/block_1_project_BN/StatefulPartitionedCall/FusedBatchNormV3", "StatefulPartitionedCall/sequential_4/mobilenetv2_1.00_224/block_2_project_BN/StatefulPartitionedCall/FusedBatchNormV3"], "attr": {"T": {"type": "DT_FLOAT"}}}, {"name": "StatefulPartitionedCall/sequential_4/mobilenetv2_1.00_224/block_3_expand_relu/PartitionedCall/Relu6", "op": "_FusedConv2D", "input": ["StatefulPartitionedCall/sequential_4/mobilenetv2_1.00_224/block_2_add/PartitionedCall/add", "StatefulPartitionedCall/sequential_4/mobilenetv2_1.00_224/block_3_expand/StatefulPartitionedCall/Conv2D_weights", "StatefulPartitionedCall/sequential_4/mobilenetv2_1.00_224/block_3_expand/StatefulPartitionedCall/Conv2D_bn_offset"], "device": "/device:CPU:0", "attr": {"data_format": {"s": "TkhXQw=="}, "num_args": {"i": "1"}, "use_cudnn_on_gpu": {"b": true}, "dilations": {"list": {"i": ["1", "1", "1", "1"]}}, "fused_ops": {"list": {"s": ["Qmlhc0FkZA==", "UmVsdTY="]}}, "padding": {"s": "U0FNRQ=="}, "T": {"type": "DT_FLOAT"}, "strides": {"list": {"i": ["1", "1", "1", "1"]}}, "explicit_paddings": {"list": {}}, "epsilon": {"f": 0.0}}}, {"name": "StatefulPartitionedCall/sequential_4/mobilenetv2_1.00_224/block_3_pad/PartitionedCall/Pad", "op": "Pad", "input": ["StatefulPartitionedCall/sequential_4/mobilenetv2_1.00_224/block_3_expand_relu/PartitionedCall/Relu6", "StatefulPartitionedCall/sequential_4/mobilenetv2_1.00_224/block_3_pad/PartitionedCall/Pad/paddings"], "attr": {"T": {"type": "DT_FLOAT"}, "Tpaddings": {"type": "DT_INT32"}}}, {"name": "StatefulPartitionedCall/sequential_4/mobilenetv2_1.00_224/block_3_depthwise/StatefulPartitionedCall/depthwise", "op": "FusedDepthwiseConv2dNative", "input": ["StatefulPartitionedCall/sequential_4/mobilenetv2_1.00_224/block_3_pad/PartitionedCall/Pad", "StatefulPartitionedCall/sequential_4/mobilenetv2_1.00_224/block_3_depthwise/StatefulPartitionedCall/depthwise_weights", "StatefulPartitionedCall/sequential_4/mobilenetv2_1.00_224/block_3_depthwise/StatefulPartitionedCall/depthwise_bn_offset"], "attr": {"num_args": {"i": "1"}, "dilations": {"list": {"i": ["1", "1", "1", "1"]}}, "T": {"type": "DT_FLOAT"}, "explicit_paddings": {"list": {}}, "fused_ops": {"list": {"s": ["Qmlhc0FkZA==", "UmVsdTY="]}}, "strides": {"list": {"i": ["1", "2", "2", "1"]}}, "padding": {"s": "VkFMSUQ="}, "data_format": {"s": "TkhXQw=="}}}, {"name": "StatefulPartitionedCall/sequential_4/mobilenetv2_1.00_224/block_3_project_BN/StatefulPartitionedCall/FusedBatchNormV3", "op": "_FusedConv2D", "input": ["StatefulPartitionedCall/sequential_4/mobilenetv2_1.00_224/block_3_depthwise/StatefulPartitionedCall/depthwise", "StatefulPartitionedCall/sequential_4/mobilenetv2_1.00_224/block_3_project/StatefulPartitionedCall/Conv2D_weights", "StatefulPartitionedCall/sequential_4/mobilenetv2_1.00_224/block_3_project/StatefulPartitionedCall/Conv2D_bn_offset"], "device": "/device:CPU:0", "attr": {"explicit_paddings": {"list": {}}, "epsilon": {"f": 0.0}, "fused_ops": {"list": {"s": ["Qmlhc0FkZA=="]}}, "strides": {"list": {"i": ["1", "1", "1", "1"]}}, "data_format": {"s": "TkhXQw=="}, "dilations": {"list": {"i": ["1", "1", "1", "1"]}}, "padding": {"s": "U0FNRQ=="}, "num_args": {"i": "1"}, "use_cudnn_on_gpu": {"b": true}, "T": {"type": "DT_FLOAT"}}}, {"name": "StatefulPartitionedCall/sequential_4/mobilenetv2_1.00_224/block_4_expand_relu/PartitionedCall/Relu6", "op": "_FusedConv2D", "input": ["StatefulPartitionedCall/sequential_4/mobilenetv2_1.00_224/block_3_project_BN/StatefulPartitionedCall/FusedBatchNormV3", "StatefulPartitionedCall/sequential_4/mobilenetv2_1.00_224/block_4_expand/StatefulPartitionedCall/Conv2D_weights", "StatefulPartitionedCall/sequential_4/mobilenetv2_1.00_224/block_4_expand/StatefulPartitionedCall/Conv2D_bn_offset"], "device": "/device:CPU:0", "attr": {"explicit_paddings": {"list": {}}, "data_format": {"s": "TkhXQw=="}, "dilations": {"list": {"i": ["1", "1", "1", "1"]}}, "T": {"type": "DT_FLOAT"}, "use_cudnn_on_gpu": {"b": true}, "epsilon": {"f": 0.0}, "fused_ops": {"list": {"s": ["Qmlhc0FkZA==", "UmVsdTY="]}}, "strides": {"list": {"i": ["1", "1", "1", "1"]}}, "padding": {"s": "U0FNRQ=="}, "num_args": {"i": "1"}}}, {"name": "StatefulPartitionedCall/sequential_4/mobilenetv2_1.00_224/block_4_depthwise/StatefulPartitionedCall/depthwise", "op": "FusedDepthwiseConv2dNative", "input": ["StatefulPartitionedCall/sequential_4/mobilenetv2_1.00_224/block_4_expand_relu/PartitionedCall/Relu6", "StatefulPartitionedCall/sequential_4/mobilenetv2_1.00_224/block_4_depthwise/StatefulPartitionedCall/depthwise_weights", "StatefulPartitionedCall/sequential_4/mobilenetv2_1.00_224/block_4_depthwise/StatefulPartitionedCall/depthwise_bn_offset"], "attr": {"data_format": {"s": "TkhXQw=="}, "strides": {"list": {"i": ["1", "1", "1", "1"]}}, "T": {"type": "DT_FLOAT"}, "fused_ops": {"list": {"s": ["Qmlhc0FkZA==", "UmVsdTY="]}}, "num_args": {"i": "1"}, "explicit_paddings": {"list": {}}, "padding": {"s": "U0FNRQ=="}, "dilations": {"list": {"i": ["1", "1", "1", "1"]}}}}, {"name": "StatefulPartitionedCall/sequential_4/mobilenetv2_1.00_224/block_4_project_BN/StatefulPartitionedCall/FusedBatchNormV3", "op": "_FusedConv2D", "input": ["StatefulPartitionedCall/sequential_4/mobilenetv2_1.00_224/block_4_depthwise/StatefulPartitionedCall/depthwise", "StatefulPartitionedCall/sequential_4/mobilenetv2_1.00_224/block_4_project/StatefulPartitionedCall/Conv2D_weights", "StatefulPartitionedCall/sequential_4/mobilenetv2_1.00_224/block_4_project/StatefulPartitionedCall/Conv2D_bn_offset"], "device": "/device:CPU:0", "attr": {"fused_ops": {"list": {"s": ["Qmlhc0FkZA=="]}}, "strides": {"list": {"i": ["1", "1", "1", "1"]}}, "epsilon": {"f": 0.0}, "padding": {"s": "U0FNRQ=="}, "dilations": {"list": {"i": ["1", "1", "1", "1"]}}, "explicit_paddings": {"list": {}}, "num_args": {"i": "1"}, "use_cudnn_on_gpu": {"b": true}, "data_format": {"s": "TkhXQw=="}, "T": {"type": "DT_FLOAT"}}}, {"name": "StatefulPartitionedCall/sequential_4/mobilenetv2_1.00_224/block_4_add/PartitionedCall/add", "op": "AddV2", "input": ["StatefulPartitionedCall/sequential_4/mobilenetv2_1.00_224/block_3_project_BN/StatefulPartitionedCall/FusedBatchNormV3", "StatefulPartitionedCall/sequential_4/mobilenetv2_1.00_224/block_4_project_BN/StatefulPartitionedCall/FusedBatchNormV3"], "attr": {"T": {"type": "DT_FLOAT"}}}, {"name": "StatefulPartitionedCall/sequential_4/mobilenetv2_1.00_224/block_5_expand_relu/PartitionedCall/Relu6", "op": "_FusedConv2D", "input": ["StatefulPartitionedCall/sequential_4/mobilenetv2_1.00_224/block_4_add/PartitionedCall/add", "StatefulPartitionedCall/sequential_4/mobilenetv2_1.00_224/block_5_expand/StatefulPartitionedCall/Conv2D_weights", "StatefulPartitionedCall/sequential_4/mobilenetv2_1.00_224/block_5_expand/StatefulPartitionedCall/Conv2D_bn_offset"], "device": "/device:CPU:0", "attr": {"T": {"type": "DT_FLOAT"}, "dilations": {"list": {"i": ["1", "1", "1", "1"]}}, "explicit_paddings": {"list": {}}, "epsilon": {"f": 0.0}, "num_args": {"i": "1"}, "data_format": {"s": "TkhXQw=="}, "use_cudnn_on_gpu": {"b": true}, "fused_ops": {"list": {"s": ["Qmlhc0FkZA==", "UmVsdTY="]}}, "strides": {"list": {"i": ["1", "1", "1", "1"]}}, "padding": {"s": "U0FNRQ=="}}}, {"name": "StatefulPartitionedCall/sequential_4/mobilenetv2_1.00_224/block_5_depthwise/StatefulPartitionedCall/depthwise", "op": "FusedDepthwiseConv2dNative", "input": ["StatefulPartitionedCall/sequential_4/mobilenetv2_1.00_224/block_5_expand_relu/PartitionedCall/Relu6", "StatefulPartitionedCall/sequential_4/mobilenetv2_1.00_224/block_5_depthwise/StatefulPartitionedCall/depthwise_weights", "StatefulPartitionedCall/sequential_4/mobilenetv2_1.00_224/block_5_depthwise/StatefulPartitionedCall/depthwise_bn_offset"], "attr": {"explicit_paddings": {"list": {}}, "T": {"type": "DT_FLOAT"}, "fused_ops": {"list": {"s": ["Qmlhc0FkZA==", "UmVsdTY="]}}, "strides": {"list": {"i": ["1", "1", "1", "1"]}}, "dilations": {"list": {"i": ["1", "1", "1", "1"]}}, "data_format": {"s": "TkhXQw=="}, "num_args": {"i": "1"}, "padding": {"s": "U0FNRQ=="}}}, {"name": "StatefulPartitionedCall/sequential_4/mobilenetv2_1.00_224/block_5_project_BN/StatefulPartitionedCall/FusedBatchNormV3", "op": "_FusedConv2D", "input": ["StatefulPartitionedCall/sequential_4/mobilenetv2_1.00_224/block_5_depthwise/StatefulPartitionedCall/depthwise", "StatefulPartitionedCall/sequential_4/mobilenetv2_1.00_224/block_5_project/StatefulPartitionedCall/Conv2D_weights", "StatefulPartitionedCall/sequential_4/mobilenetv2_1.00_224/block_5_project/StatefulPartitionedCall/Conv2D_bn_offset"], "device": "/device:CPU:0", "attr": {"T": {"type": "DT_FLOAT"}, "padding": {"s": "U0FNRQ=="}, "use_cudnn_on_gpu": {"b": true}, "explicit_paddings": {"list": {}}, "data_format": {"s": "TkhXQw=="}, "fused_ops": {"list": {"s": ["Qmlhc0FkZA=="]}}, "dilations": {"list": {"i": ["1", "1", "1", "1"]}}, "epsilon": {"f": 0.0}, "strides": {"list": {"i": ["1", "1", "1", "1"]}}, "num_args": {"i": "1"}}}, {"name": "StatefulPartitionedCall/sequential_4/mobilenetv2_1.00_224/block_5_add/PartitionedCall/add", "op": "AddV2", "input": ["StatefulPartitionedCall/sequential_4/mobilenetv2_1.00_224/block_4_add/PartitionedCall/add", "StatefulPartitionedCall/sequential_4/mobilenetv2_1.00_224/block_5_project_BN/StatefulPartitionedCall/FusedBatchNormV3"], "attr": {"T": {"type": "DT_FLOAT"}}}, {"name": "StatefulPartitionedCall/sequential_4/mobilenetv2_1.00_224/block_6_expand_relu/PartitionedCall/Relu6", "op": "_FusedConv2D", "input": ["StatefulPartitionedCall/sequential_4/mobilenetv2_1.00_224/block_5_add/PartitionedCall/add", "StatefulPartitionedCall/sequential_4/mobilenetv2_1.00_224/block_6_expand/StatefulPartitionedCall/Conv2D_weights", "StatefulPartitionedCall/sequential_4/mobilenetv2_1.00_224/block_6_expand/StatefulPartitionedCall/Conv2D_bn_offset"], "device": "/device:CPU:0", "attr": {"fused_ops": {"list": {"s": ["Qmlhc0FkZA==", "UmVsdTY="]}}, "num_args": {"i": "1"}, "padding": {"s": "U0FNRQ=="}, "dilations": {"list": {"i": ["1", "1", "1", "1"]}}, "T": {"type": "DT_FLOAT"}, "strides": {"list": {"i": ["1", "1", "1", "1"]}}, "use_cudnn_on_gpu": {"b": true}, "data_format": {"s": "TkhXQw=="}, "epsilon": {"f": 0.0}, "explicit_paddings": {"list": {}}}}, {"name": "StatefulPartitionedCall/sequential_4/mobilenetv2_1.00_224/block_6_pad/PartitionedCall/Pad", "op": "Pad", "input": ["StatefulPartitionedCall/sequential_4/mobilenetv2_1.00_224/block_6_expand_relu/PartitionedCall/Relu6", "StatefulPartitionedCall/sequential_4/mobilenetv2_1.00_224/block_6_pad/PartitionedCall/Pad/paddings"], "attr": {"Tpaddings": {"type": "DT_INT32"}, "T": {"type": "DT_FLOAT"}}}, {"name": "StatefulPartitionedCall/sequential_4/mobilenetv2_1.00_224/block_6_depthwise/StatefulPartitionedCall/depthwise", "op": "FusedDepthwiseConv2dNative", "input": ["StatefulPartitionedCall/sequential_4/mobilenetv2_1.00_224/block_6_pad/PartitionedCall/Pad", "StatefulPartitionedCall/sequential_4/mobilenetv2_1.00_224/block_6_depthwise/StatefulPartitionedCall/depthwise_weights", "StatefulPartitionedCall/sequential_4/mobilenetv2_1.00_224/block_6_depthwise/StatefulPartitionedCall/depthwise_bn_offset"], "attr": {"strides": {"list": {"i": ["1", "2", "2", "1"]}}, "fused_ops": {"list": {"s": ["Qmlhc0FkZA==", "UmVsdTY="]}}, "explicit_paddings": {"list": {}}, "num_args": {"i": "1"}, "dilations": {"list": {"i": ["1", "1", "1", "1"]}}, "T": {"type": "DT_FLOAT"}, "padding": {"s": "VkFMSUQ="}, "data_format": {"s": "TkhXQw=="}}}, {"name": "StatefulPartitionedCall/sequential_4/mobilenetv2_1.00_224/block_6_project_BN/StatefulPartitionedCall/FusedBatchNormV3", "op": "_FusedConv2D", "input": ["StatefulPartitionedCall/sequential_4/mobilenetv2_1.00_224/block_6_depthwise/StatefulPartitionedCall/depthwise", "StatefulPartitionedCall/sequential_4/mobilenetv2_1.00_224/block_6_project/StatefulPartitionedCall/Conv2D_weights", "StatefulPartitionedCall/sequential_4/mobilenetv2_1.00_224/block_6_project/StatefulPartitionedCall/Conv2D_bn_offset"], "device": "/device:CPU:0", "attr": {"T": {"type": "DT_FLOAT"}, "padding": {"s": "U0FNRQ=="}, "data_format": {"s": "TkhXQw=="}, "use_cudnn_on_gpu": {"b": true}, "fused_ops": {"list": {"s": ["Qmlhc0FkZA=="]}}, "dilations": {"list": {"i": ["1", "1", "1", "1"]}}, "strides": {"list": {"i": ["1", "1", "1", "1"]}}, "explicit_paddings": {"list": {}}, "epsilon": {"f": 0.0}, "num_args": {"i": "1"}}}, {"name": "StatefulPartitionedCall/sequential_4/mobilenetv2_1.00_224/block_7_expand_relu/PartitionedCall/Relu6", "op": "_FusedConv2D", "input": ["StatefulPartitionedCall/sequential_4/mobilenetv2_1.00_224/block_6_project_BN/StatefulPartitionedCall/FusedBatchNormV3", "StatefulPartitionedCall/sequential_4/mobilenetv2_1.00_224/block_7_expand/StatefulPartitionedCall/Conv2D_weights", "StatefulPartitionedCall/sequential_4/mobilenetv2_1.00_224/block_7_expand/StatefulPartitionedCall/Conv2D_bn_offset"], "device": "/device:CPU:0", "attr": {"explicit_paddings": {"list": {}}, "fused_ops": {"list": {"s": ["Qmlhc0FkZA==", "UmVsdTY="]}}, "dilations": {"list": {"i": ["1", "1", "1", "1"]}}, "data_format": {"s": "TkhXQw=="}, "epsilon": {"f": 0.0}, "num_args": {"i": "1"}, "strides": {"list": {"i": ["1", "1", "1", "1"]}}, "T": {"type": "DT_FLOAT"}, "padding": {"s": "U0FNRQ=="}, "use_cudnn_on_gpu": {"b": true}}}, {"name": "StatefulPartitionedCall/sequential_4/mobilenetv2_1.00_224/block_7_depthwise/StatefulPartitionedCall/depthwise", "op": "FusedDepthwiseConv2dNative", "input": ["StatefulPartitionedCall/sequential_4/mobilenetv2_1.00_224/block_7_expand_relu/PartitionedCall/Relu6", "StatefulPartitionedCall/sequential_4/mobilenetv2_1.00_224/block_7_depthwise/StatefulPartitionedCall/depthwise_weights", "StatefulPartitionedCall/sequential_4/mobilenetv2_1.00_224/block_7_depthwise/StatefulPartitionedCall/depthwise_bn_offset"], "attr": {"explicit_paddings": {"list": {}}, "strides": {"list": {"i": ["1", "1", "1", "1"]}}, "padding": {"s": "U0FNRQ=="}, "num_args": {"i": "1"}, "T": {"type": "DT_FLOAT"}, "data_format": {"s": "TkhXQw=="}, "fused_ops": {"list": {"s": ["Qmlhc0FkZA==", "UmVsdTY="]}}, "dilations": {"list": {"i": ["1", "1", "1", "1"]}}}}, {"name": "StatefulPartitionedCall/sequential_4/mobilenetv2_1.00_224/block_7_project_BN/StatefulPartitionedCall/FusedBatchNormV3", "op": "_FusedConv2D", "input": ["StatefulPartitionedCall/sequential_4/mobilenetv2_1.00_224/block_7_depthwise/StatefulPartitionedCall/depthwise", "StatefulPartitionedCall/sequential_4/mobilenetv2_1.00_224/block_7_project/StatefulPartitionedCall/Conv2D_weights", "StatefulPartitionedCall/sequential_4/mobilenetv2_1.00_224/block_7_project/StatefulPartitionedCall/Conv2D_bn_offset"], "device": "/device:CPU:0", "attr": {"strides": {"list": {"i": ["1", "1", "1", "1"]}}, "fused_ops": {"list": {"s": ["Qmlhc0FkZA=="]}}, "T": {"type": "DT_FLOAT"}, "data_format": {"s": "TkhXQw=="}, "use_cudnn_on_gpu": {"b": true}, "num_args": {"i": "1"}, "padding": {"s": "U0FNRQ=="}, "epsilon": {"f": 0.0}, "explicit_paddings": {"list": {}}, "dilations": {"list": {"i": ["1", "1", "1", "1"]}}}}, {"name": "StatefulPartitionedCall/sequential_4/mobilenetv2_1.00_224/block_7_add/PartitionedCall/add", "op": "AddV2", "input": ["StatefulPartitionedCall/sequential_4/mobilenetv2_1.00_224/block_6_project_BN/StatefulPartitionedCall/FusedBatchNormV3", "StatefulPartitionedCall/sequential_4/mobilenetv2_1.00_224/block_7_project_BN/StatefulPartitionedCall/FusedBatchNormV3"], "attr": {"T": {"type": "DT_FLOAT"}}}, {"name": "StatefulPartitionedCall/sequential_4/mobilenetv2_1.00_224/block_8_expand_relu/PartitionedCall/Relu6", "op": "_FusedConv2D", "input": ["StatefulPartitionedCall/sequential_4/mobilenetv2_1.00_224/block_7_add/PartitionedCall/add", "StatefulPartitionedCall/sequential_4/mobilenetv2_1.00_224/block_8_expand/StatefulPartitionedCall/Conv2D_weights", "StatefulPartitionedCall/sequential_4/mobilenetv2_1.00_224/block_8_expand/StatefulPartitionedCall/Conv2D_bn_offset"], "device": "/device:CPU:0", "attr": {"epsilon": {"f": 0.0}, "padding": {"s": "U0FNRQ=="}, "dilations": {"list": {"i": ["1", "1", "1", "1"]}}, "strides": {"list": {"i": ["1", "1", "1", "1"]}}, "use_cudnn_on_gpu": {"b": true}, "num_args": {"i": "1"}, "explicit_paddings": {"list": {}}, "T": {"type": "DT_FLOAT"}, "data_format": {"s": "TkhXQw=="}, "fused_ops": {"list": {"s": ["Qmlhc0FkZA==", "UmVsdTY="]}}}}, {"name": "StatefulPartitionedCall/sequential_4/mobilenetv2_1.00_224/block_8_depthwise/StatefulPartitionedCall/depthwise", "op": "FusedDepthwiseConv2dNative", "input": ["StatefulPartitionedCall/sequential_4/mobilenetv2_1.00_224/block_8_expand_relu/PartitionedCall/Relu6", "StatefulPartitionedCall/sequential_4/mobilenetv2_1.00_224/block_8_depthwise/StatefulPartitionedCall/depthwise_weights", "StatefulPartitionedCall/sequential_4/mobilenetv2_1.00_224/block_8_depthwise/StatefulPartitionedCall/depthwise_bn_offset"], "attr": {"dilations": {"list": {"i": ["1", "1", "1", "1"]}}, "data_format": {"s": "TkhXQw=="}, "fused_ops": {"list": {"s": ["Qmlhc0FkZA==", "UmVsdTY="]}}, "strides": {"list": {"i": ["1", "1", "1", "1"]}}, "num_args": {"i": "1"}, "padding": {"s": "U0FNRQ=="}, "T": {"type": "DT_FLOAT"}, "explicit_paddings": {"list": {}}}}, {"name": "StatefulPartitionedCall/sequential_4/mobilenetv2_1.00_224/block_8_project_BN/StatefulPartitionedCall/FusedBatchNormV3", "op": "_FusedConv2D", "input": ["StatefulPartitionedCall/sequential_4/mobilenetv2_1.00_224/block_8_depthwise/StatefulPartitionedCall/depthwise", "StatefulPartitionedCall/sequential_4/mobilenetv2_1.00_224/block_8_project/StatefulPartitionedCall/Conv2D_weights", "StatefulPartitionedCall/sequential_4/mobilenetv2_1.00_224/block_8_project/StatefulPartitionedCall/Conv2D_bn_offset"], "device": "/device:CPU:0", "attr": {"padding": {"s": "U0FNRQ=="}, "dilations": {"list": {"i": ["1", "1", "1", "1"]}}, "explicit_paddings": {"list": {}}, "num_args": {"i": "1"}, "data_format": {"s": "TkhXQw=="}, "strides": {"list": {"i": ["1", "1", "1", "1"]}}, "T": {"type": "DT_FLOAT"}, "use_cudnn_on_gpu": {"b": true}, "epsilon": {"f": 0.0}, "fused_ops": {"list": {"s": ["Qmlhc0FkZA=="]}}}}, {"name": "StatefulPartitionedCall/sequential_4/mobilenetv2_1.00_224/block_8_add/PartitionedCall/add", "op": "AddV2", "input": ["StatefulPartitionedCall/sequential_4/mobilenetv2_1.00_224/block_7_add/PartitionedCall/add", "StatefulPartitionedCall/sequential_4/mobilenetv2_1.00_224/block_8_project_BN/StatefulPartitionedCall/FusedBatchNormV3"], "attr": {"T": {"type": "DT_FLOAT"}}}, {"name": "StatefulPartitionedCall/sequential_4/mobilenetv2_1.00_224/block_9_expand_relu/PartitionedCall/Relu6", "op": "_FusedConv2D", "input": ["StatefulPartitionedCall/sequential_4/mobilenetv2_1.00_224/block_8_add/PartitionedCall/add", "StatefulPartitionedCall/sequential_4/mobilenetv2_1.00_224/block_9_expand/StatefulPartitionedCall/Conv2D_weights", "StatefulPartitionedCall/sequential_4/mobilenetv2_1.00_224/block_9_expand/StatefulPartitionedCall/Conv2D_bn_offset"], "device": "/device:CPU:0", "attr": {"fused_ops": {"list": {"s": ["Qmlhc0FkZA==", "UmVsdTY="]}}, "T": {"type": "DT_FLOAT"}, "strides": {"list": {"i": ["1", "1", "1", "1"]}}, "padding": {"s": "U0FNRQ=="}, "explicit_paddings": {"list": {}}, "num_args": {"i": "1"}, "dilations": {"list": {"i": ["1", "1", "1", "1"]}}, "use_cudnn_on_gpu": {"b": true}, "epsilon": {"f": 0.0}, "data_format": {"s": "TkhXQw=="}}}, {"name": "StatefulPartitionedCall/sequential_4/mobilenetv2_1.00_224/block_9_depthwise/StatefulPartitionedCall/depthwise", "op": "FusedDepthwiseConv2dNative", "input": ["StatefulPartitionedCall/sequential_4/mobilenetv2_1.00_224/block_9_expand_relu/PartitionedCall/Relu6", "StatefulPartitionedCall/sequential_4/mobilenetv2_1.00_224/block_9_depthwise/StatefulPartitionedCall/depthwise_weights", "StatefulPartitionedCall/sequential_4/mobilenetv2_1.00_224/block_9_depthwise/StatefulPartitionedCall/depthwise_bn_offset"], "attr": {"dilations": {"list": {"i": ["1", "1", "1", "1"]}}, "strides": {"list": {"i": ["1", "1", "1", "1"]}}, "data_format": {"s": "TkhXQw=="}, "T": {"type": "DT_FLOAT"}, "explicit_paddings": {"list": {}}, "fused_ops": {"list": {"s": ["Qmlhc0FkZA==", "UmVsdTY="]}}, "padding": {"s": "U0FNRQ=="}, "num_args": {"i": "1"}}}, {"name": "StatefulPartitionedCall/sequential_4/mobilenetv2_1.00_224/block_9_project_BN/StatefulPartitionedCall/FusedBatchNormV3", "op": "_FusedConv2D", "input": ["StatefulPartitionedCall/sequential_4/mobilenetv2_1.00_224/block_9_depthwise/StatefulPartitionedCall/depthwise", "StatefulPartitionedCall/sequential_4/mobilenetv2_1.00_224/block_9_project/StatefulPartitionedCall/Conv2D_weights", "StatefulPartitionedCall/sequential_4/mobilenetv2_1.00_224/block_9_project/StatefulPartitionedCall/Conv2D_bn_offset"], "device": "/device:CPU:0", "attr": {"epsilon": {"f": 0.0}, "strides": {"list": {"i": ["1", "1", "1", "1"]}}, "data_format": {"s": "TkhXQw=="}, "T": {"type": "DT_FLOAT"}, "fused_ops": {"list": {"s": ["Qmlhc0FkZA=="]}}, "explicit_paddings": {"list": {}}, "num_args": {"i": "1"}, "dilations": {"list": {"i": ["1", "1", "1", "1"]}}, "padding": {"s": "U0FNRQ=="}, "use_cudnn_on_gpu": {"b": true}}}, {"name": "StatefulPartitionedCall/sequential_4/mobilenetv2_1.00_224/block_9_add/PartitionedCall/add", "op": "AddV2", "input": ["StatefulPartitionedCall/sequential_4/mobilenetv2_1.00_224/block_8_add/PartitionedCall/add", "StatefulPartitionedCall/sequential_4/mobilenetv2_1.00_224/block_9_project_BN/StatefulPartitionedCall/FusedBatchNormV3"], "attr": {"T": {"type": "DT_FLOAT"}}}, {"name": "StatefulPartitionedCall/sequential_4/mobilenetv2_1.00_224/block_10_expand_relu/PartitionedCall/Relu6", "op": "_FusedConv2D", "input": ["StatefulPartitionedCall/sequential_4/mobilenetv2_1.00_224/block_9_add/PartitionedCall/add", "StatefulPartitionedCall/sequential_4/mobilenetv2_1.00_224/block_10_expand/StatefulPartitionedCall/Conv2D_weights", "StatefulPartitionedCall/sequential_4/mobilenetv2_1.00_224/block_10_expand/StatefulPartitionedCall/Conv2D_bn_offset"], "device": "/device:CPU:0", "attr": {"dilations": {"list": {"i": ["1", "1", "1", "1"]}}, "strides": {"list": {"i": ["1", "1", "1", "1"]}}, "data_format": {"s": "TkhXQw=="}, "use_cudnn_on_gpu": {"b": true}, "num_args": {"i": "1"}, "explicit_paddings": {"list": {}}, "padding": {"s": "U0FNRQ=="}, "T": {"type": "DT_FLOAT"}, "fused_ops": {"list": {"s": ["Qmlhc0FkZA==", "UmVsdTY="]}}, "epsilon": {"f": 0.0}}}, {"name": "StatefulPartitionedCall/sequential_4/mobilenetv2_1.00_224/block_10_depthwise/StatefulPartitionedCall/depthwise", "op": "FusedDepthwiseConv2dNative", "input": ["StatefulPartitionedCall/sequential_4/mobilenetv2_1.00_224/block_10_expand_relu/PartitionedCall/Relu6", "StatefulPartitionedCall/sequential_4/mobilenetv2_1.00_224/block_10_depthwise/StatefulPartitionedCall/depthwise_weights", "StatefulPartitionedCall/sequential_4/mobilenetv2_1.00_224/block_10_depthwise/StatefulPartitionedCall/depthwise_bn_offset"], "attr": {"num_args": {"i": "1"}, "dilations": {"list": {"i": ["1", "1", "1", "1"]}}, "padding": {"s": "U0FNRQ=="}, "fused_ops": {"list": {"s": ["Qmlhc0FkZA==", "UmVsdTY="]}}, "T": {"type": "DT_FLOAT"}, "explicit_paddings": {"list": {}}, "data_format": {"s": "TkhXQw=="}, "strides": {"list": {"i": ["1", "1", "1", "1"]}}}}, {"name": "StatefulPartitionedCall/sequential_4/mobilenetv2_1.00_224/block_10_project_BN/StatefulPartitionedCall/FusedBatchNormV3", "op": "_FusedConv2D", "input": ["StatefulPartitionedCall/sequential_4/mobilenetv2_1.00_224/block_10_depthwise/StatefulPartitionedCall/depthwise", "StatefulPartitionedCall/sequential_4/mobilenetv2_1.00_224/block_10_project/StatefulPartitionedCall/Conv2D_weights", "StatefulPartitionedCall/sequential_4/mobilenetv2_1.00_224/block_10_project/StatefulPartitionedCall/Conv2D_bn_offset"], "device": "/device:CPU:0", "attr": {"epsilon": {"f": 0.0}, "data_format": {"s": "TkhXQw=="}, "use_cudnn_on_gpu": {"b": true}, "T": {"type": "DT_FLOAT"}, "strides": {"list": {"i": ["1", "1", "1", "1"]}}, "padding": {"s": "U0FNRQ=="}, "explicit_paddings": {"list": {}}, "fused_ops": {"list": {"s": ["Qmlhc0FkZA=="]}}, "dilations": {"list": {"i": ["1", "1", "1", "1"]}}, "num_args": {"i": "1"}}}, {"name": "StatefulPartitionedCall/sequential_4/mobilenetv2_1.00_224/block_11_expand_relu/PartitionedCall/Relu6", "op": "_FusedConv2D", "input": ["StatefulPartitionedCall/sequential_4/mobilenetv2_1.00_224/block_10_project_BN/StatefulPartitionedCall/FusedBatchNormV3", "StatefulPartitionedCall/sequential_4/mobilenetv2_1.00_224/block_11_expand/StatefulPartitionedCall/Conv2D_weights", "StatefulPartitionedCall/sequential_4/mobilenetv2_1.00_224/block_11_expand/StatefulPartitionedCall/Conv2D_bn_offset"], "device": "/device:CPU:0", "attr": {"explicit_paddings": {"list": {}}, "num_args": {"i": "1"}, "data_format": {"s": "TkhXQw=="}, "fused_ops": {"list": {"s": ["Qmlhc0FkZA==", "UmVsdTY="]}}, "use_cudnn_on_gpu": {"b": true}, "strides": {"list": {"i": ["1", "1", "1", "1"]}}, "dilations": {"list": {"i": ["1", "1", "1", "1"]}}, "T": {"type": "DT_FLOAT"}, "epsilon": {"f": 0.0}, "padding": {"s": "U0FNRQ=="}}}, {"name": "StatefulPartitionedCall/sequential_4/mobilenetv2_1.00_224/block_11_depthwise/StatefulPartitionedCall/depthwise", "op": "FusedDepthwiseConv2dNative", "input": ["StatefulPartitionedCall/sequential_4/mobilenetv2_1.00_224/block_11_expand_relu/PartitionedCall/Relu6", "StatefulPartitionedCall/sequential_4/mobilenetv2_1.00_224/block_11_depthwise/StatefulPartitionedCall/depthwise_weights", "StatefulPartitionedCall/sequential_4/mobilenetv2_1.00_224/block_11_depthwise/StatefulPartitionedCall/depthwise_bn_offset"], "attr": {"padding": {"s": "U0FNRQ=="}, "data_format": {"s": "TkhXQw=="}, "num_args": {"i": "1"}, "T": {"type": "DT_FLOAT"}, "explicit_paddings": {"list": {}}, "strides": {"list": {"i": ["1", "1", "1", "1"]}}, "fused_ops": {"list": {"s": ["Qmlhc0FkZA==", "UmVsdTY="]}}, "dilations": {"list": {"i": ["1", "1", "1", "1"]}}}}, {"name": "StatefulPartitionedCall/sequential_4/mobilenetv2_1.00_224/block_11_project_BN/StatefulPartitionedCall/FusedBatchNormV3", "op": "_FusedConv2D", "input": ["StatefulPartitionedCall/sequential_4/mobilenetv2_1.00_224/block_11_depthwise/StatefulPartitionedCall/depthwise", "StatefulPartitionedCall/sequential_4/mobilenetv2_1.00_224/block_11_project/StatefulPartitionedCall/Conv2D_weights", "StatefulPartitionedCall/sequential_4/mobilenetv2_1.00_224/block_11_project/StatefulPartitionedCall/Conv2D_bn_offset"], "device": "/device:CPU:0", "attr": {"strides": {"list": {"i": ["1", "1", "1", "1"]}}, "data_format": {"s": "TkhXQw=="}, "explicit_paddings": {"list": {}}, "dilations": {"list": {"i": ["1", "1", "1", "1"]}}, "use_cudnn_on_gpu": {"b": true}, "num_args": {"i": "1"}, "T": {"type": "DT_FLOAT"}, "fused_ops": {"list": {"s": ["Qmlhc0FkZA=="]}}, "padding": {"s": "U0FNRQ=="}, "epsilon": {"f": 0.0}}}, {"name": "StatefulPartitionedCall/sequential_4/mobilenetv2_1.00_224/block_11_add/PartitionedCall/add", "op": "AddV2", "input": ["StatefulPartitionedCall/sequential_4/mobilenetv2_1.00_224/block_10_project_BN/StatefulPartitionedCall/FusedBatchNormV3", "StatefulPartitionedCall/sequential_4/mobilenetv2_1.00_224/block_11_project_BN/StatefulPartitionedCall/FusedBatchNormV3"], "attr": {"T": {"type": "DT_FLOAT"}}}, {"name": "StatefulPartitionedCall/sequential_4/mobilenetv2_1.00_224/block_12_expand_relu/PartitionedCall/Relu6", "op": "_FusedConv2D", "input": ["StatefulPartitionedCall/sequential_4/mobilenetv2_1.00_224/block_11_add/PartitionedCall/add", "StatefulPartitionedCall/sequential_4/mobilenetv2_1.00_224/block_12_expand/StatefulPartitionedCall/Conv2D_weights", "StatefulPartitionedCall/sequential_4/mobilenetv2_1.00_224/block_12_expand/StatefulPartitionedCall/Conv2D_bn_offset"], "device": "/device:CPU:0", "attr": {"num_args": {"i": "1"}, "use_cudnn_on_gpu": {"b": true}, "fused_ops": {"list": {"s": ["Qmlhc0FkZA==", "UmVsdTY="]}}, "padding": {"s": "U0FNRQ=="}, "T": {"type": "DT_FLOAT"}, "data_format": {"s": "TkhXQw=="}, "epsilon": {"f": 0.0}, "dilations": {"list": {"i": ["1", "1", "1", "1"]}}, "explicit_paddings": {"list": {}}, "strides": {"list": {"i": ["1", "1", "1", "1"]}}}}, {"name": "StatefulPartitionedCall/sequential_4/mobilenetv2_1.00_224/block_12_depthwise/StatefulPartitionedCall/depthwise", "op": "FusedDepthwiseConv2dNative", "input": ["StatefulPartitionedCall/sequential_4/mobilenetv2_1.00_224/block_12_expand_relu/PartitionedCall/Relu6", "StatefulPartitionedCall/sequential_4/mobilenetv2_1.00_224/block_12_depthwise/StatefulPartitionedCall/depthwise_weights", "StatefulPartitionedCall/sequential_4/mobilenetv2_1.00_224/block_12_depthwise/StatefulPartitionedCall/depthwise_bn_offset"], "attr": {"strides": {"list": {"i": ["1", "1", "1", "1"]}}, "fused_ops": {"list": {"s": ["Qmlhc0FkZA==", "UmVsdTY="]}}, "padding": {"s": "U0FNRQ=="}, "data_format": {"s": "TkhXQw=="}, "explicit_paddings": {"list": {}}, "dilations": {"list": {"i": ["1", "1", "1", "1"]}}, "num_args": {"i": "1"}, "T": {"type": "DT_FLOAT"}}}, {"name": "StatefulPartitionedCall/sequential_4/mobilenetv2_1.00_224/block_12_project_BN/StatefulPartitionedCall/FusedBatchNormV3", "op": "_FusedConv2D", "input": ["StatefulPartitionedCall/sequential_4/mobilenetv2_1.00_224/block_12_depthwise/StatefulPartitionedCall/depthwise", "StatefulPartitionedCall/sequential_4/mobilenetv2_1.00_224/block_12_project/StatefulPartitionedCall/Conv2D_weights", "StatefulPartitionedCall/sequential_4/mobilenetv2_1.00_224/block_12_project/StatefulPartitionedCall/Conv2D_bn_offset"], "device": "/device:CPU:0", "attr": {"strides": {"list": {"i": ["1", "1", "1", "1"]}}, "num_args": {"i": "1"}, "use_cudnn_on_gpu": {"b": true}, "T": {"type": "DT_FLOAT"}, "epsilon": {"f": 0.0}, "explicit_paddings": {"list": {}}, "data_format": {"s": "TkhXQw=="}, "padding": {"s": "U0FNRQ=="}, "fused_ops": {"list": {"s": ["Qmlhc0FkZA=="]}}, "dilations": {"list": {"i": ["1", "1", "1", "1"]}}}}, {"name": "StatefulPartitionedCall/sequential_4/mobilenetv2_1.00_224/block_12_add/PartitionedCall/add", "op": "AddV2", "input": ["StatefulPartitionedCall/sequential_4/mobilenetv2_1.00_224/block_11_add/PartitionedCall/add", "StatefulPartitionedCall/sequential_4/mobilenetv2_1.00_224/block_12_project_BN/StatefulPartitionedCall/FusedBatchNormV3"], "attr": {"T": {"type": "DT_FLOAT"}}}, {"name": "StatefulPartitionedCall/sequential_4/mobilenetv2_1.00_224/block_13_expand_relu/PartitionedCall/Relu6", "op": "_FusedConv2D", "input": ["StatefulPartitionedCall/sequential_4/mobilenetv2_1.00_224/block_12_add/PartitionedCall/add", "StatefulPartitionedCall/sequential_4/mobilenetv2_1.00_224/block_13_expand/StatefulPartitionedCall/Conv2D_weights", "StatefulPartitionedCall/sequential_4/mobilenetv2_1.00_224/block_13_expand/StatefulPartitionedCall/Conv2D_bn_offset"], "device": "/device:CPU:0", "attr": {"num_args": {"i": "1"}, "fused_ops": {"list": {"s": ["Qmlhc0FkZA==", "UmVsdTY="]}}, "strides": {"list": {"i": ["1", "1", "1", "1"]}}, "epsilon": {"f": 0.0}, "dilations": {"list": {"i": ["1", "1", "1", "1"]}}, "data_format": {"s": "TkhXQw=="}, "padding": {"s": "U0FNRQ=="}, "T": {"type": "DT_FLOAT"}, "explicit_paddings": {"list": {}}, "use_cudnn_on_gpu": {"b": true}}}, {"name": "StatefulPartitionedCall/sequential_4/mobilenetv2_1.00_224/block_13_pad/PartitionedCall/Pad", "op": "Pad", "input": ["StatefulPartitionedCall/sequential_4/mobilenetv2_1.00_224/block_13_expand_relu/PartitionedCall/Relu6", "StatefulPartitionedCall/sequential_4/mobilenetv2_1.00_224/block_13_pad/PartitionedCall/Pad/paddings"], "attr": {"T": {"type": "DT_FLOAT"}, "Tpaddings": {"type": "DT_INT32"}}}, {"name": "StatefulPartitionedCall/sequential_4/mobilenetv2_1.00_224/block_13_depthwise/StatefulPartitionedCall/depthwise", "op": "FusedDepthwiseConv2dNative", "input": ["StatefulPartitionedCall/sequential_4/mobilenetv2_1.00_224/block_13_pad/PartitionedCall/Pad", "StatefulPartitionedCall/sequential_4/mobilenetv2_1.00_224/block_13_depthwise/StatefulPartitionedCall/depthwise_weights", "StatefulPartitionedCall/sequential_4/mobilenetv2_1.00_224/block_13_depthwise/StatefulPartitionedCall/depthwise_bn_offset"], "attr": {"num_args": {"i": "1"}, "explicit_paddings": {"list": {}}, "T": {"type": "DT_FLOAT"}, "fused_ops": {"list": {"s": ["Qmlhc0FkZA==", "UmVsdTY="]}}, "dilations": {"list": {"i": ["1", "1", "1", "1"]}}, "padding": {"s": "VkFMSUQ="}, "data_format": {"s": "TkhXQw=="}, "strides": {"list": {"i": ["1", "2", "2", "1"]}}}}, {"name": "StatefulPartitionedCall/sequential_4/mobilenetv2_1.00_224/block_13_project_BN/StatefulPartitionedCall/FusedBatchNormV3", "op": "_FusedConv2D", "input": ["StatefulPartitionedCall/sequential_4/mobilenetv2_1.00_224/block_13_depthwise/StatefulPartitionedCall/depthwise", "StatefulPartitionedCall/sequential_4/mobilenetv2_1.00_224/block_13_project/StatefulPartitionedCall/Conv2D_weights", "StatefulPartitionedCall/sequential_4/mobilenetv2_1.00_224/block_13_project/StatefulPartitionedCall/Conv2D_bn_offset"], "device": "/device:CPU:0", "attr": {"padding": {"s": "U0FNRQ=="}, "use_cudnn_on_gpu": {"b": true}, "num_args": {"i": "1"}, "dilations": {"list": {"i": ["1", "1", "1", "1"]}}, "explicit_paddings": {"list": {}}, "fused_ops": {"list": {"s": ["Qmlhc0FkZA=="]}}, "epsilon": {"f": 0.0}, "data_format": {"s": "TkhXQw=="}, "strides": {"list": {"i": ["1", "1", "1", "1"]}}, "T": {"type": "DT_FLOAT"}}}, {"name": "StatefulPartitionedCall/sequential_4/mobilenetv2_1.00_224/block_14_expand_relu/PartitionedCall/Relu6", "op": "_FusedConv2D", "input": ["StatefulPartitionedCall/sequential_4/mobilenetv2_1.00_224/block_13_project_BN/StatefulPartitionedCall/FusedBatchNormV3", "StatefulPartitionedCall/sequential_4/mobilenetv2_1.00_224/block_14_expand/StatefulPartitionedCall/Conv2D_weights", "StatefulPartitionedCall/sequential_4/mobilenetv2_1.00_224/block_14_expand/StatefulPartitionedCall/Conv2D_bn_offset"], "device": "/device:CPU:0", "attr": {"explicit_paddings": {"list": {}}, "use_cudnn_on_gpu": {"b": true}, "data_format": {"s": "TkhXQw=="}, "dilations": {"list": {"i": ["1", "1", "1", "1"]}}, "padding": {"s": "U0FNRQ=="}, "T": {"type": "DT_FLOAT"}, "fused_ops": {"list": {"s": ["Qmlhc0FkZA==", "UmVsdTY="]}}, "epsilon": {"f": 0.0}, "num_args": {"i": "1"}, "strides": {"list": {"i": ["1", "1", "1", "1"]}}}}, {"name": "StatefulPartitionedCall/sequential_4/mobilenetv2_1.00_224/block_14_depthwise/StatefulPartitionedCall/depthwise", "op": "FusedDepthwiseConv2dNative", "input": ["StatefulPartitionedCall/sequential_4/mobilenetv2_1.00_224/block_14_expand_relu/PartitionedCall/Relu6", "StatefulPartitionedCall/sequential_4/mobilenetv2_1.00_224/block_14_depthwise/StatefulPartitionedCall/depthwise_weights", "StatefulPartitionedCall/sequential_4/mobilenetv2_1.00_224/block_14_depthwise/StatefulPartitionedCall/depthwise_bn_offset"], "attr": {"strides": {"list": {"i": ["1", "1", "1", "1"]}}, "data_format": {"s": "TkhXQw=="}, "num_args": {"i": "1"}, "fused_ops": {"list": {"s": ["Qmlhc0FkZA==", "UmVsdTY="]}}, "T": {"type": "DT_FLOAT"}, "dilations": {"list": {"i": ["1", "1", "1", "1"]}}, "padding": {"s": "U0FNRQ=="}, "explicit_paddings": {"list": {}}}}, {"name": "StatefulPartitionedCall/sequential_4/mobilenetv2_1.00_224/block_14_project_BN/StatefulPartitionedCall/FusedBatchNormV3", "op": "_FusedConv2D", "input": ["StatefulPartitionedCall/sequential_4/mobilenetv2_1.00_224/block_14_depthwise/StatefulPartitionedCall/depthwise", "StatefulPartitionedCall/sequential_4/mobilenetv2_1.00_224/block_14_project/StatefulPartitionedCall/Conv2D_weights", "StatefulPartitionedCall/sequential_4/mobilenetv2_1.00_224/block_14_project/StatefulPartitionedCall/Conv2D_bn_offset"], "device": "/device:CPU:0", "attr": {"num_args": {"i": "1"}, "T": {"type": "DT_FLOAT"}, "strides": {"list": {"i": ["1", "1", "1", "1"]}}, "data_format": {"s": "TkhXQw=="}, "explicit_paddings": {"list": {}}, "fused_ops": {"list": {"s": ["Qmlhc0FkZA=="]}}, "padding": {"s": "U0FNRQ=="}, "dilations": {"list": {"i": ["1", "1", "1", "1"]}}, "use_cudnn_on_gpu": {"b": true}, "epsilon": {"f": 0.0}}}, {"name": "StatefulPartitionedCall/sequential_4/mobilenetv2_1.00_224/block_14_add/PartitionedCall/add", "op": "AddV2", "input": ["StatefulPartitionedCall/sequential_4/mobilenetv2_1.00_224/block_13_project_BN/StatefulPartitionedCall/FusedBatchNormV3", "StatefulPartitionedCall/sequential_4/mobilenetv2_1.00_224/block_14_project_BN/StatefulPartitionedCall/FusedBatchNormV3"], "attr": {"T": {"type": "DT_FLOAT"}}}, {"name": "StatefulPartitionedCall/sequential_4/mobilenetv2_1.00_224/block_15_expand_relu/PartitionedCall/Relu6", "op": "_FusedConv2D", "input": ["StatefulPartitionedCall/sequential_4/mobilenetv2_1.00_224/block_14_add/PartitionedCall/add", "StatefulPartitionedCall/sequential_4/mobilenetv2_1.00_224/block_15_expand/StatefulPartitionedCall/Conv2D_weights", "StatefulPartitionedCall/sequential_4/mobilenetv2_1.00_224/block_15_expand/StatefulPartitionedCall/Conv2D_bn_offset"], "device": "/device:CPU:0", "attr": {"T": {"type": "DT_FLOAT"}, "epsilon": {"f": 0.0}, "data_format": {"s": "TkhXQw=="}, "fused_ops": {"list": {"s": ["Qmlhc0FkZA==", "UmVsdTY="]}}, "explicit_paddings": {"list": {}}, "dilations": {"list": {"i": ["1", "1", "1", "1"]}}, "padding": {"s": "U0FNRQ=="}, "strides": {"list": {"i": ["1", "1", "1", "1"]}}, "num_args": {"i": "1"}, "use_cudnn_on_gpu": {"b": true}}}, {"name": "StatefulPartitionedCall/sequential_4/mobilenetv2_1.00_224/block_15_depthwise/StatefulPartitionedCall/depthwise", "op": "FusedDepthwiseConv2dNative", "input": ["StatefulPartitionedCall/sequential_4/mobilenetv2_1.00_224/block_15_expand_relu/PartitionedCall/Relu6", "StatefulPartitionedCall/sequential_4/mobilenetv2_1.00_224/block_15_depthwise/StatefulPartitionedCall/depthwise_weights", "StatefulPartitionedCall/sequential_4/mobilenetv2_1.00_224/block_15_depthwise/StatefulPartitionedCall/depthwise_bn_offset"], "attr": {"strides": {"list": {"i": ["1", "1", "1", "1"]}}, "explicit_paddings": {"list": {}}, "num_args": {"i": "1"}, "data_format": {"s": "TkhXQw=="}, "T": {"type": "DT_FLOAT"}, "fused_ops": {"list": {"s": ["Qmlhc0FkZA==", "UmVsdTY="]}}, "padding": {"s": "U0FNRQ=="}, "dilations": {"list": {"i": ["1", "1", "1", "1"]}}}}, {"name": "StatefulPartitionedCall/sequential_4/mobilenetv2_1.00_224/block_15_project_BN/StatefulPartitionedCall/FusedBatchNormV3", "op": "_FusedConv2D", "input": ["StatefulPartitionedCall/sequential_4/mobilenetv2_1.00_224/block_15_depthwise/StatefulPartitionedCall/depthwise", "StatefulPartitionedCall/sequential_4/mobilenetv2_1.00_224/block_15_project/StatefulPartitionedCall/Conv2D_weights", "StatefulPartitionedCall/sequential_4/mobilenetv2_1.00_224/block_15_project/StatefulPartitionedCall/Conv2D_bn_offset"], "device": "/device:CPU:0", "attr": {"dilations": {"list": {"i": ["1", "1", "1", "1"]}}, "strides": {"list": {"i": ["1", "1", "1", "1"]}}, "explicit_paddings": {"list": {}}, "use_cudnn_on_gpu": {"b": true}, "data_format": {"s": "TkhXQw=="}, "fused_ops": {"list": {"s": ["Qmlhc0FkZA=="]}}, "T": {"type": "DT_FLOAT"}, "epsilon": {"f": 0.0}, "num_args": {"i": "1"}, "padding": {"s": "U0FNRQ=="}}}, {"name": "StatefulPartitionedCall/sequential_4/mobilenetv2_1.00_224/block_15_add/PartitionedCall/add", "op": "AddV2", "input": ["StatefulPartitionedCall/sequential_4/mobilenetv2_1.00_224/block_14_add/PartitionedCall/add", "StatefulPartitionedCall/sequential_4/mobilenetv2_1.00_224/block_15_project_BN/StatefulPartitionedCall/FusedBatchNormV3"], "attr": {"T": {"type": "DT_FLOAT"}}}, {"name": "StatefulPartitionedCall/sequential_4/mobilenetv2_1.00_224/block_16_expand_relu/PartitionedCall/Relu6", "op": "_FusedConv2D", "input": ["StatefulPartitionedCall/sequential_4/mobilenetv2_1.00_224/block_15_add/PartitionedCall/add", "StatefulPartitionedCall/sequential_4/mobilenetv2_1.00_224/block_16_expand/StatefulPartitionedCall/Conv2D_weights", "StatefulPartitionedCall/sequential_4/mobilenetv2_1.00_224/block_16_expand/StatefulPartitionedCall/Conv2D_bn_offset"], "device": "/device:CPU:0", "attr": {"data_format": {"s": "TkhXQw=="}, "use_cudnn_on_gpu": {"b": true}, "strides": {"list": {"i": ["1", "1", "1", "1"]}}, "dilations": {"list": {"i": ["1", "1", "1", "1"]}}, "epsilon": {"f": 0.0}, "explicit_paddings": {"list": {}}, "num_args": {"i": "1"}, "T": {"type": "DT_FLOAT"}, "fused_ops": {"list": {"s": ["Qmlhc0FkZA==", "UmVsdTY="]}}, "padding": {"s": "U0FNRQ=="}}}, {"name": "StatefulPartitionedCall/sequential_4/mobilenetv2_1.00_224/block_16_depthwise/StatefulPartitionedCall/depthwise", "op": "FusedDepthwiseConv2dNative", "input": ["StatefulPartitionedCall/sequential_4/mobilenetv2_1.00_224/block_16_expand_relu/PartitionedCall/Relu6", "StatefulPartitionedCall/sequential_4/mobilenetv2_1.00_224/block_16_depthwise/StatefulPartitionedCall/depthwise_weights", "StatefulPartitionedCall/sequential_4/mobilenetv2_1.00_224/block_16_depthwise/StatefulPartitionedCall/depthwise_bn_offset"], "attr": {"padding": {"s": "U0FNRQ=="}, "explicit_paddings": {"list": {}}, "data_format": {"s": "TkhXQw=="}, "fused_ops": {"list": {"s": ["Qmlhc0FkZA==", "UmVsdTY="]}}, "T": {"type": "DT_FLOAT"}, "num_args": {"i": "1"}, "strides": {"list": {"i": ["1", "1", "1", "1"]}}, "dilations": {"list": {"i": ["1", "1", "1", "1"]}}}}, {"name": "StatefulPartitionedCall/sequential_4/mobilenetv2_1.00_224/block_16_project_BN/StatefulPartitionedCall/FusedBatchNormV3", "op": "_FusedConv2D", "input": ["StatefulPartitionedCall/sequential_4/mobilenetv2_1.00_224/block_16_depthwise/StatefulPartitionedCall/depthwise", "StatefulPartitionedCall/sequential_4/mobilenetv2_1.00_224/block_16_project/StatefulPartitionedCall/Conv2D_weights", "StatefulPartitionedCall/sequential_4/mobilenetv2_1.00_224/block_16_project/StatefulPartitionedCall/Conv2D_bn_offset"], "device": "/device:CPU:0", "attr": {"strides": {"list": {"i": ["1", "1", "1", "1"]}}, "use_cudnn_on_gpu": {"b": true}, "padding": {"s": "U0FNRQ=="}, "fused_ops": {"list": {"s": ["Qmlhc0FkZA=="]}}, "explicit_paddings": {"list": {}}, "dilations": {"list": {"i": ["1", "1", "1", "1"]}}, "epsilon": {"f": 0.0}, "num_args": {"i": "1"}, "T": {"type": "DT_FLOAT"}, "data_format": {"s": "TkhXQw=="}}}, {"name": "StatefulPartitionedCall/sequential_4/mobilenetv2_1.00_224/out_relu/PartitionedCall/Relu6", "op": "_FusedConv2D", "input": ["StatefulPartitionedCall/sequential_4/mobilenetv2_1.00_224/block_16_project_BN/StatefulPartitionedCall/FusedBatchNormV3", "StatefulPartitionedCall/sequential_4/mobilenetv2_1.00_224/Conv_1/StatefulPartitionedCall/Conv2D_weights", "StatefulPartitionedCall/sequential_4/mobilenetv2_1.00_224/Conv_1/StatefulPartitionedCall/Conv2D_bn_offset"], "device": "/device:CPU:0", "attr": {"explicit_paddings": {"list": {}}, "strides": {"list": {"i": ["1", "1", "1", "1"]}}, "dilations": {"list": {"i": ["1", "1", "1", "1"]}}, "epsilon": {"f": 0.0}, "fused_ops": {"list": {"s": ["Qmlhc0FkZA==", "UmVsdTY="]}}, "num_args": {"i": "1"}, "T": {"type": "DT_FLOAT"}, "data_format": {"s": "TkhXQw=="}, "use_cudnn_on_gpu": {"b": true}, "padding": {"s": "VkFMSUQ="}}}, {"name": "StatefulPartitionedCall/sequential_4/global_average_pooling2d/Mean", "op": "Mean", "input": ["StatefulPartitionedCall/sequential_4/mobilenetv2_1.00_224/out_relu/PartitionedCall/Relu6", "StatefulPartitionedCall/sequential_4/global_average_pooling2d/Mean/reduction_indices"], "attr": {"keep_dims": {"b": false}, "T": {"type": "DT_FLOAT"}, "Tidx": {"type": "DT_INT32"}}}, {"name": "StatefulPartitionedCall/sequential_4/dense_4/Relu", "op": "_FusedMatMul", "input": ["StatefulPartitionedCall/sequential_4/global_average_pooling2d/Mean", "StatefulPartitionedCall/sequential_4/dense_4/MatMul/ReadVariableOp", "StatefulPartitionedCall/sequential_4/dense_4/BiasAdd/ReadVariableOp"], "device": "/device:CPU:0", "attr": {"fused_ops": {"list": {"s": ["Qmlhc0FkZA==", "UmVsdQ=="]}}, "num_args": {"i": "1"}, "transpose_a": {"b": false}, "T": {"type": "DT_FLOAT"}, "transpose_b": {"b": false}, "epsilon": {"f": 0.0}}}, {"name": "StatefulPartitionedCall/sequential_4/final_output/BiasAdd", "op": "_FusedMatMul", "input": ["StatefulPartitionedCall/sequential_4/dense_4/Relu", "StatefulPartitionedCall/sequential_4/final_output/MatMul/ReadVariableOp", "StatefulPartitionedCall/sequential_4/final_output/BiasAdd/ReadVariableOp"], "device": "/device:CPU:0", "attr": {"T": {"type": "DT_FLOAT"}, "fused_ops": {"list": {"s": ["Qmlhc0FkZA=="]}}, "transpose_a": {"b": false}, "epsilon": {"f": 0.0}, "num_args": {"i": "1"}, "transpose_b": {"b": false}}}, {"name": "StatefulPartitionedCall/sequential_4/final_output/Softmax", "op": "Softmax", "input": ["StatefulPartitionedCall/sequential_4/final_output/BiasAdd"], "attr": {"T": {"type": "DT_FLOAT"}}}, {"name": "Identity", "op": "Identity", "input": ["StatefulPartitionedCall/sequential_4/final_output/Softmax"], "attr": {"T": {"type": "DT_FLOAT"}}}], "library": {}, "versions": {"producer": 987}}, "weightsManifest": [{"paths": ["group1-shard1of3.bin", "group1-shard2of3.bin", "group1-shard3of3.bin"], "weights": [{"name": "StatefulPartitionedCall/sequential_4/rescaling/PartitionedCall/Cast/x", "shape": [], "dtype": "float32"}, {"name": "StatefulPartitionedCall/sequential_4/rescaling/PartitionedCall/Cast_1/x", "shape": [], "dtype": "float32"}, {"name": "StatefulPartitionedCall/sequential_4/mobilenetv2_1.00_224/block_1_pad/PartitionedCall/Pad/paddings", "shape": [4, 2], "dtype": "int32"}, {"name": "StatefulPartitionedCall/sequential_4/mobilenetv2_1.00_224/block_3_pad/PartitionedCall/Pad/paddings", "shape": [4, 2], "dtype": "int32"}, {"name": "StatefulPartitionedCall/sequential_4/mobilenetv2_1.00_224/block_6_pad/PartitionedCall/Pad/paddings", "shape": [4, 2], "dtype": "int32"}, {"name": "StatefulPartitionedCall/sequential_4/mobilenetv2_1.00_224/block_13_pad/PartitionedCall/Pad/paddings", "shape": [4, 2], "dtype": "int32"}, {"name": "StatefulPartitionedCall/sequential_4/global_average_pooling2d/Mean/reduction_indices", "shape": [2], "dtype": "int32"}, {"name": "StatefulPartitionedCall/sequential_4/dense_4/MatMul/ReadVariableOp", "shape": [1280, 512], "dtype": "float32"}, {"name": "StatefulPartitionedCall/sequential_4/dense_4/BiasAdd/ReadVariableOp", "shape": [512], "dtype": "float32"}, {"name": "StatefulPartitionedCall/sequential_4/final_output/MatMul/ReadVariableOp", "shape": [512, 12], "dtype": "float32"}, {"name": "StatefulPartitionedCall/sequential_4/final_output/BiasAdd/ReadVariableOp", "shape": [12], "dtype": "float32"}, {"name": "StatefulPartitionedCall/sequential_4/mobilenetv2_1.00_224/Conv1/StatefulPartitionedCall/Conv2D_weights", "shape": [3, 3, 3, 32], "dtype": "float32"}, {"name": "StatefulPartitionedCall/sequential_4/mobilenetv2_1.00_224/Conv1/StatefulPartitionedCall/Conv2D_bn_offset", "shape": [32], "dtype": "float32"}, {"name": "StatefulPartitionedCall/sequential_4/mobilenetv2_1.00_224/block_14_expand/StatefulPartitionedCall/Conv2D_bn_offset", "shape": [960], "dtype": "float32"}, {"name": "StatefulPartitionedCall/sequential_4/mobilenetv2_1.00_224/expanded_conv_depthwise/StatefulPartitionedCall/depthwise_weights", "shape": [3, 3, 32, 1], "dtype": "float32"}, {"name": "StatefulPartitionedCall/sequential_4/mobilenetv2_1.00_224/expanded_conv_depthwise/StatefulPartitionedCall/depthwise_bn_offset", "shape": [32], "dtype": "float32"}, {"name": "StatefulPartitionedCall/sequential_4/mobilenetv2_1.00_224/expanded_conv_project/StatefulPartitionedCall/Conv2D_weights", "shape": [1, 1, 32, 16], "dtype": "float32"}, {"name": "StatefulPartitionedCall/sequential_4/mobilenetv2_1.00_224/Conv_1/StatefulPartitionedCall/Conv2D_weights", "shape": [1, 1, 320, 1280], "dtype": "float32"}, {"name": "StatefulPartitionedCall/sequential_4/mobilenetv2_1.00_224/expanded_conv_project/StatefulPartitionedCall/Conv2D_bn_offset", "shape": [16], "dtype": "float32"}, {"name": "StatefulPartitionedCall/sequential_4/mobilenetv2_1.00_224/block_1_expand/StatefulPartitionedCall/Conv2D_weights", "shape": [1, 1, 16, 96], "dtype": "float32"}, {"name": "StatefulPartitionedCall/sequential_4/mobilenetv2_1.00_224/block_1_expand/StatefulPartitionedCall/Conv2D_bn_offset", "shape": [96], "dtype": "float32"}, {"name": "StatefulPartitionedCall/sequential_4/mobilenetv2_1.00_224/block_14_depthwise/StatefulPartitionedCall/depthwise_weights", "shape": [3, 3, 960, 1], "dtype": "float32"}, {"name": "StatefulPartitionedCall/sequential_4/mobilenetv2_1.00_224/block_1_depthwise/StatefulPartitionedCall/depthwise_weights", "shape": [3, 3, 96, 1], "dtype": "float32"}, {"name": "StatefulPartitionedCall/sequential_4/mobilenetv2_1.00_224/block_1_depthwise/StatefulPartitionedCall/depthwise_bn_offset", "shape": [96], "dtype": "float32"}, {"name": "StatefulPartitionedCall/sequential_4/mobilenetv2_1.00_224/block_1_project/StatefulPartitionedCall/Conv2D_weights", "shape": [1, 1, 96, 24], "dtype": "float32"}, {"name": "StatefulPartitionedCall/sequential_4/mobilenetv2_1.00_224/block_1_project/StatefulPartitionedCall/Conv2D_bn_offset", "shape": [24], "dtype": "float32"}, {"name": "StatefulPartitionedCall/sequential_4/mobilenetv2_1.00_224/block_2_expand/StatefulPartitionedCall/Conv2D_weights", "shape": [1, 1, 24, 144], "dtype": "float32"}, {"name": "StatefulPartitionedCall/sequential_4/mobilenetv2_1.00_224/block_14_depthwise/StatefulPartitionedCall/depthwise_bn_offset", "shape": [960], "dtype": "float32"}, {"name": "StatefulPartitionedCall/sequential_4/mobilenetv2_1.00_224/block_2_expand/StatefulPartitionedCall/Conv2D_bn_offset", "shape": [144], "dtype": "float32"}, {"name": "StatefulPartitionedCall/sequential_4/mobilenetv2_1.00_224/block_2_depthwise/StatefulPartitionedCall/depthwise_weights", "shape": [3, 3, 144, 1], "dtype": "float32"}, {"name": "StatefulPartitionedCall/sequential_4/mobilenetv2_1.00_224/block_2_depthwise/StatefulPartitionedCall/depthwise_bn_offset", "shape": [144], "dtype": "float32"}, {"name": "StatefulPartitionedCall/sequential_4/mobilenetv2_1.00_224/block_2_project/StatefulPartitionedCall/Conv2D_weights", "shape": [1, 1, 144, 24], "dtype": "float32"}, {"name": "StatefulPartitionedCall/sequential_4/mobilenetv2_1.00_224/block_2_project/StatefulPartitionedCall/Conv2D_bn_offset", "shape": [24], "dtype": "float32"}, {"name": "StatefulPartitionedCall/sequential_4/mobilenetv2_1.00_224/block_3_expand/StatefulPartitionedCall/Conv2D_weights", "shape": [1, 1, 24, 144], "dtype": "float32"}, {"name": "StatefulPartitionedCall/sequential_4/mobilenetv2_1.00_224/block_14_project/StatefulPartitionedCall/Conv2D_weights", "shape": [1, 1, 960, 160], "dtype": "float32"}, {"name": "StatefulPartitionedCall/sequential_4/mobilenetv2_1.00_224/block_3_expand/StatefulPartitionedCall/Conv2D_bn_offset", "shape": [144], "dtype": "float32"}, {"name": "StatefulPartitionedCall/sequential_4/mobilenetv2_1.00_224/block_3_depthwise/StatefulPartitionedCall/depthwise_weights", "shape": [3, 3, 144, 1], "dtype": "float32"}, {"name": "StatefulPartitionedCall/sequential_4/mobilenetv2_1.00_224/block_3_depthwise/StatefulPartitionedCall/depthwise_bn_offset", "shape": [144], "dtype": "float32"}, {"name": "StatefulPartitionedCall/sequential_4/mobilenetv2_1.00_224/block_3_project/StatefulPartitionedCall/Conv2D_weights", "shape": [1, 1, 144, 32], "dtype": "float32"}, {"name": "StatefulPartitionedCall/sequential_4/mobilenetv2_1.00_224/block_14_project/StatefulPartitionedCall/Conv2D_bn_offset", "shape": [160], "dtype": "float32"}, {"name": "StatefulPartitionedCall/sequential_4/mobilenetv2_1.00_224/block_3_project/StatefulPartitionedCall/Conv2D_bn_offset", "shape": [32], "dtype": "float32"}, {"name": "StatefulPartitionedCall/sequential_4/mobilenetv2_1.00_224/block_4_expand/StatefulPartitionedCall/Conv2D_weights", "shape": [1, 1, 32, 192], "dtype": "float32"}, {"name": "StatefulPartitionedCall/sequential_4/mobilenetv2_1.00_224/block_4_expand/StatefulPartitionedCall/Conv2D_bn_offset", "shape": [192], "dtype": "float32"}, {"name": "StatefulPartitionedCall/sequential_4/mobilenetv2_1.00_224/block_4_depthwise/StatefulPartitionedCall/depthwise_weights", "shape": [3, 3, 192, 1], "dtype": "float32"}, {"name": "StatefulPartitionedCall/sequential_4/mobilenetv2_1.00_224/block_4_depthwise/StatefulPartitionedCall/depthwise_bn_offset", "shape": [192], "dtype": "float32"}, {"name": "StatefulPartitionedCall/sequential_4/mobilenetv2_1.00_224/block_4_project/StatefulPartitionedCall/Conv2D_weights", "shape": [1, 1, 192, 32], "dtype": "float32"}, {"name": "StatefulPartitionedCall/sequential_4/mobilenetv2_1.00_224/block_15_expand/StatefulPartitionedCall/Conv2D_weights", "shape": [1, 1, 160, 960], "dtype": "float32"}, {"name": "StatefulPartitionedCall/sequential_4/mobilenetv2_1.00_224/block_4_project/StatefulPartitionedCall/Conv2D_bn_offset", "shape": [32], "dtype": "float32"}, {"name": "StatefulPartitionedCall/sequential_4/mobilenetv2_1.00_224/block_5_expand/StatefulPartitionedCall/Conv2D_weights", "shape": [1, 1, 32, 192], "dtype": "float32"}, {"name": "StatefulPartitionedCall/sequential_4/mobilenetv2_1.00_224/Conv_1/StatefulPartitionedCall/Conv2D_bn_offset", "shape": [1280], "dtype": "float32"}, {"name": "StatefulPartitionedCall/sequential_4/mobilenetv2_1.00_224/block_5_expand/StatefulPartitionedCall/Conv2D_bn_offset", "shape": [192], "dtype": "float32"}, {"name": "StatefulPartitionedCall/sequential_4/mobilenetv2_1.00_224/block_15_expand/StatefulPartitionedCall/Conv2D_bn_offset", "shape": [960], "dtype": "float32"}, {"name": "StatefulPartitionedCall/sequential_4/mobilenetv2_1.00_224/block_5_depthwise/StatefulPartitionedCall/depthwise_weights", "shape": [3, 3, 192, 1], "dtype": "float32"}, {"name": "StatefulPartitionedCall/sequential_4/mobilenetv2_1.00_224/block_5_depthwise/StatefulPartitionedCall/depthwise_bn_offset", "shape": [192], "dtype": "float32"}, {"name": "StatefulPartitionedCall/sequential_4/mobilenetv2_1.00_224/block_5_project/StatefulPartitionedCall/Conv2D_weights", "shape": [1, 1, 192, 32], "dtype": "float32"}, {"name": "StatefulPartitionedCall/sequential_4/mobilenetv2_1.00_224/block_5_project/StatefulPartitionedCall/Conv2D_bn_offset", "shape": [32], "dtype": "float32"}, {"name": "StatefulPartitionedCall/sequential_4/mobilenetv2_1.00_224/block_6_expand/StatefulPartitionedCall/Conv2D_weights", "shape": [1, 1, 32, 192], "dtype": "float32"}, {"name": "StatefulPartitionedCall/sequential_4/mobilenetv2_1.00_224/block_6_expand/StatefulPartitionedCall/Conv2D_bn_offset", "shape": [192], "dtype": "float32"}, {"name": "StatefulPartitionedCall/sequential_4/mobilenetv2_1.00_224/block_15_depthwise/StatefulPartitionedCall/depthwise_weights", "shape": [3, 3, 960, 1], "dtype": "float32"}, {"name": "StatefulPartitionedCall/sequential_4/mobilenetv2_1.00_224/block_6_depthwise/StatefulPartitionedCall/depthwise_weights", "shape": [3, 3, 192, 1], "dtype": "float32"}, {"name": "StatefulPartitionedCall/sequential_4/mobilenetv2_1.00_224/block_6_depthwise/StatefulPartitionedCall/depthwise_bn_offset", "shape": [192], "dtype": "float32"}, {"name": "StatefulPartitionedCall/sequential_4/mobilenetv2_1.00_224/block_6_project/StatefulPartitionedCall/Conv2D_weights", "shape": [1, 1, 192, 64], "dtype": "float32"}, {"name": "StatefulPartitionedCall/sequential_4/mobilenetv2_1.00_224/block_6_project/StatefulPartitionedCall/Conv2D_bn_offset", "shape": [64], "dtype": "float32"}, {"name": "StatefulPartitionedCall/sequential_4/mobilenetv2_1.00_224/block_7_expand/StatefulPartitionedCall/Conv2D_weights", "shape": [1, 1, 64, 384], "dtype": "float32"}, {"name": "StatefulPartitionedCall/sequential_4/mobilenetv2_1.00_224/block_15_depthwise/StatefulPartitionedCall/depthwise_bn_offset", "shape": [960], "dtype": "float32"}, {"name": "StatefulPartitionedCall/sequential_4/mobilenetv2_1.00_224/block_7_expand/StatefulPartitionedCall/Conv2D_bn_offset", "shape": [384], "dtype": "float32"}, {"name": "StatefulPartitionedCall/sequential_4/mobilenetv2_1.00_224/block_7_depthwise/StatefulPartitionedCall/depthwise_weights", "shape": [3, 3, 384, 1], "dtype": "float32"}, {"name": "StatefulPartitionedCall/sequential_4/mobilenetv2_1.00_224/block_7_depthwise/StatefulPartitionedCall/depthwise_bn_offset", "shape": [384], "dtype": "float32"}, {"name": "StatefulPartitionedCall/sequential_4/mobilenetv2_1.00_224/block_7_project/StatefulPartitionedCall/Conv2D_weights", "shape": [1, 1, 384, 64], "dtype": "float32"}, {"name": "StatefulPartitionedCall/sequential_4/mobilenetv2_1.00_224/block_7_project/StatefulPartitionedCall/Conv2D_bn_offset", "shape": [64], "dtype": "float32"}, {"name": "StatefulPartitionedCall/sequential_4/mobilenetv2_1.00_224/block_8_expand/StatefulPartitionedCall/Conv2D_weights", "shape": [1, 1, 64, 384], "dtype": "float32"}, {"name": "StatefulPartitionedCall/sequential_4/mobilenetv2_1.00_224/block_15_project/StatefulPartitionedCall/Conv2D_weights", "shape": [1, 1, 960, 160], "dtype": "float32"}, {"name": "StatefulPartitionedCall/sequential_4/mobilenetv2_1.00_224/block_8_expand/StatefulPartitionedCall/Conv2D_bn_offset", "shape": [384], "dtype": "float32"}, {"name": "StatefulPartitionedCall/sequential_4/mobilenetv2_1.00_224/block_8_depthwise/StatefulPartitionedCall/depthwise_weights", "shape": [3, 3, 384, 1], "dtype": "float32"}, {"name": "StatefulPartitionedCall/sequential_4/mobilenetv2_1.00_224/block_8_depthwise/StatefulPartitionedCall/depthwise_bn_offset", "shape": [384], "dtype": "float32"}, {"name": "StatefulPartitionedCall/sequential_4/mobilenetv2_1.00_224/block_8_project/StatefulPartitionedCall/Conv2D_weights", "shape": [1, 1, 384, 64], "dtype": "float32"}, {"name": "StatefulPartitionedCall/sequential_4/mobilenetv2_1.00_224/block_15_project/StatefulPartitionedCall/Conv2D_bn_offset", "shape": [160], "dtype": "float32"}, {"name": "StatefulPartitionedCall/sequential_4/mobilenetv2_1.00_224/block_8_project/StatefulPartitionedCall/Conv2D_bn_offset", "shape": [64], "dtype": "float32"}, {"name": "StatefulPartitionedCall/sequential_4/mobilenetv2_1.00_224/block_9_expand/StatefulPartitionedCall/Conv2D_weights", "shape": [1, 1, 64, 384], "dtype": "float32"}, {"name": "StatefulPartitionedCall/sequential_4/mobilenetv2_1.00_224/block_9_expand/StatefulPartitionedCall/Conv2D_bn_offset", "shape": [384], "dtype": "float32"}, {"name": "StatefulPartitionedCall/sequential_4/mobilenetv2_1.00_224/block_9_depthwise/StatefulPartitionedCall/depthwise_weights", "shape": [3, 3, 384, 1], "dtype": "float32"}, {"name": "StatefulPartitionedCall/sequential_4/mobilenetv2_1.00_224/block_9_depthwise/StatefulPartitionedCall/depthwise_bn_offset", "shape": [384], "dtype": "float32"}, {"name": "StatefulPartitionedCall/sequential_4/mobilenetv2_1.00_224/block_9_project/StatefulPartitionedCall/Conv2D_weights", "shape": [1, 1, 384, 64], "dtype": "float32"}, {"name": "StatefulPartitionedCall/sequential_4/mobilenetv2_1.00_224/block_16_expand/StatefulPartitionedCall/Conv2D_weights", "shape": [1, 1, 160, 960], "dtype": "float32"}, {"name": "StatefulPartitionedCall/sequential_4/mobilenetv2_1.00_224/block_9_project/StatefulPartitionedCall/Conv2D_bn_offset", "shape": [64], "dtype": "float32"}, {"name": "StatefulPartitionedCall/sequential_4/mobilenetv2_1.00_224/block_10_expand/StatefulPartitionedCall/Conv2D_weights", "shape": [1, 1, 64, 384], "dtype": "float32"}, {"name": "StatefulPartitionedCall/sequential_4/mobilenetv2_1.00_224/block_10_expand/StatefulPartitionedCall/Conv2D_bn_offset", "shape": [384], "dtype": "float32"}, {"name": "StatefulPartitionedCall/sequential_4/mobilenetv2_1.00_224/block_16_expand/StatefulPartitionedCall/Conv2D_bn_offset", "shape": [960], "dtype": "float32"}, {"name": "StatefulPartitionedCall/sequential_4/mobilenetv2_1.00_224/block_10_depthwise/StatefulPartitionedCall/depthwise_weights", "shape": [3, 3, 384, 1], "dtype": "float32"}, {"name": "StatefulPartitionedCall/sequential_4/mobilenetv2_1.00_224/block_10_depthwise/StatefulPartitionedCall/depthwise_bn_offset", "shape": [384], "dtype": "float32"}, {"name": "StatefulPartitionedCall/sequential_4/mobilenetv2_1.00_224/block_10_project/StatefulPartitionedCall/Conv2D_weights", "shape": [1, 1, 384, 96], "dtype": "float32"}, {"name": "StatefulPartitionedCall/sequential_4/mobilenetv2_1.00_224/block_10_project/StatefulPartitionedCall/Conv2D_bn_offset", "shape": [96], "dtype": "float32"}, {"name": "StatefulPartitionedCall/sequential_4/mobilenetv2_1.00_224/block_11_expand/StatefulPartitionedCall/Conv2D_weights", "shape": [1, 1, 96, 576], "dtype": "float32"}, {"name": "StatefulPartitionedCall/sequential_4/mobilenetv2_1.00_224/block_11_expand/StatefulPartitionedCall/Conv2D_bn_offset", "shape": [576], "dtype": "float32"}, {"name": "StatefulPartitionedCall/sequential_4/mobilenetv2_1.00_224/block_16_depthwise/StatefulPartitionedCall/depthwise_weights", "shape": [3, 3, 960, 1], "dtype": "float32"}, {"name": "StatefulPartitionedCall/sequential_4/mobilenetv2_1.00_224/block_11_depthwise/StatefulPartitionedCall/depthwise_weights", "shape": [3, 3, 576, 1], "dtype": "float32"}, {"name": "StatefulPartitionedCall/sequential_4/mobilenetv2_1.00_224/block_11_depthwise/StatefulPartitionedCall/depthwise_bn_offset", "shape": [576], "dtype": "float32"}, {"name": "StatefulPartitionedCall/sequential_4/mobilenetv2_1.00_224/block_11_project/StatefulPartitionedCall/Conv2D_weights", "shape": [1, 1, 576, 96], "dtype": "float32"}, {"name": "StatefulPartitionedCall/sequential_4/mobilenetv2_1.00_224/block_11_project/StatefulPartitionedCall/Conv2D_bn_offset", "shape": [96], "dtype": "float32"}, {"name": "StatefulPartitionedCall/sequential_4/mobilenetv2_1.00_224/block_12_expand/StatefulPartitionedCall/Conv2D_weights", "shape": [1, 1, 96, 576], "dtype": "float32"}, {"name": "StatefulPartitionedCall/sequential_4/mobilenetv2_1.00_224/block_16_depthwise/StatefulPartitionedCall/depthwise_bn_offset", "shape": [960], "dtype": "float32"}, {"name": "StatefulPartitionedCall/sequential_4/mobilenetv2_1.00_224/block_12_expand/StatefulPartitionedCall/Conv2D_bn_offset", "shape": [576], "dtype": "float32"}, {"name": "StatefulPartitionedCall/sequential_4/mobilenetv2_1.00_224/block_12_depthwise/StatefulPartitionedCall/depthwise_weights", "shape": [3, 3, 576, 1], "dtype": "float32"}, {"name": "StatefulPartitionedCall/sequential_4/mobilenetv2_1.00_224/block_12_depthwise/StatefulPartitionedCall/depthwise_bn_offset", "shape": [576], "dtype": "float32"}, {"name": "StatefulPartitionedCall/sequential_4/mobilenetv2_1.00_224/block_12_project/StatefulPartitionedCall/Conv2D_weights", "shape": [1, 1, 576, 96], "dtype": "float32"}, {"name": "StatefulPartitionedCall/sequential_4/mobilenetv2_1.00_224/block_12_project/StatefulPartitionedCall/Conv2D_bn_offset", "shape": [96], "dtype": "float32"}, {"name": "StatefulPartitionedCall/sequential_4/mobilenetv2_1.00_224/block_13_expand/StatefulPartitionedCall/Conv2D_weights", "shape": [1, 1, 96, 576], "dtype": "float32"}, {"name": "StatefulPartitionedCall/sequential_4/mobilenetv2_1.00_224/block_16_project/StatefulPartitionedCall/Conv2D_weights", "shape": [1, 1, 960, 320], "dtype": "float32"}, {"name": "StatefulPartitionedCall/sequential_4/mobilenetv2_1.00_224/block_13_expand/StatefulPartitionedCall/Conv2D_bn_offset", "shape": [576], "dtype": "float32"}, {"name": "StatefulPartitionedCall/sequential_4/mobilenetv2_1.00_224/block_13_depthwise/StatefulPartitionedCall/depthwise_weights", "shape": [3, 3, 576, 1], "dtype": "float32"}, {"name": "StatefulPartitionedCall/sequential_4/mobilenetv2_1.00_224/block_13_depthwise/StatefulPartitionedCall/depthwise_bn_offset", "shape": [576], "dtype": "float32"}, {"name": "StatefulPartitionedCall/sequential_4/mobilenetv2_1.00_224/block_13_project/StatefulPartitionedCall/Conv2D_weights", "shape": [1, 1, 576, 160], "dtype": "float32"}, {"name": "StatefulPartitionedCall/sequential_4/mobilenetv2_1.00_224/block_16_project/StatefulPartitionedCall/Conv2D_bn_offset", "shape": [320], "dtype": "float32"}, {"name": "StatefulPartitionedCall/sequential_4/mobilenetv2_1.00_224/block_13_project/StatefulPartitionedCall/Conv2D_bn_offset", "shape": [160], "dtype": "float32"}, {"name": "StatefulPartitionedCall/sequential_4/mobilenetv2_1.00_224/block_14_expand/StatefulPartitionedCall/Conv2D_weights", "shape": [1, 1, 160, 960], "dtype": "float32"}]}]}
